RL_MIM/model.pth (torch, 95668 bytes, 6 tensors)

conv1.bias f4 [128]
0	0x3d286637	0.041113105
1	0xbcb1154d	-0.021616602
2	0xbb730590	-0.0037082173
3	0xbcf03c59	-0.029325651
4	0x3cfffb0d	0.03124764
5	0x3c2c6a9c	0.0105234645
6	0x3d5dce68	0.054151922
7	0xbd2e458f	-0.042546805
8	0xba9ebfe7	-0.0012111635
9	0xbd0c40c7	-0.034241464
10	0xbd5e4bce	-0.05427151
11	0x3b59446f	0.0033152362
12	0x3d223296	0.039599024
13	0x3d302bee	0.043010645
14	0xbd54a4aa	-0.05191485
15	0x3d2422df	0.04007232
16	0x3dad9f54	0.08477655
17	0x3d5ea631	0.05435771
18	0x392c0364	0.00016404461
19	0xbc4f9bd4	-0.01267143
20	0xbb99c0ba	-0.0046921642
21	0xbd543948	-0.05181244
22	0x3cd47971	0.025936814
23	0x3b747398	0.0037300345
24	0xbd0281c7	-0.031862047
25	0x3cd7ec9d	0.026357943
26	0x3aebd41d	0.0017992292
27	0xbc4a7414	-0.012356777
28	0x3d8de2f6	0.06928055
29	0x3cd406b0	0.025882095
30	0xbd8b4a09	-0.068012305
31	0xbdb8083b	-0.08985945
32	0xbc8e45be	-0.01736724
33	0x3ce45ca4	0.027876206
34	0xbcf9247c	-0.030412905
35	0xbd6c8226	-0.057741307
36	0xbc9aa02f	-0.01887521
37	0xbd1ea025	-0.038726944
38	0x3c35521b	0.011066939
39	0xbcd9856c	-0.026552878
40	0xbd9357f6	-0.071945116
41	0xbc33ce67	-0.010974503
42	0x3c4f0afd	0.012636897
43	0xbd8c43a6	-0.068488404
44	0x3ccfd26e	0.025368895
45	0x3aef4275	0.0018254059
46	0x3d20aeda	0.03922925
47	0x3d69d78b	0.057090323
48	0x3cef08e1	0.029179038
49	0x3d14f51f	0.03636658
50	0xbd859a7a	-0.06523605
51	0xbcb2e9d2	-0.02184001
52	0xbd84a74e	-0.06477223
53	0x3c6aa4eb	0.014321546
54	0x3c8f4800	0.017490387
55	0x3aa1053d	0.0012284886
56	0xbd8428ff	-0.06453132
57	0xbd5fb34f	-0.05461436
58	0x3c6cdaad	0.014456433
59	0xbce01a5e	-0.027356323
60	0xbd62f303	-0.055407535
61	0xbd26182a	-0.04055039
62	0xbd8e9a50	-0.069630265
63	0x3cecc730	0.028903574
64	0x3da3671f	0.07978653
65	0xbbd5d700	-0.006525874
66	0x3da3e1d0	0.08002055
67	0xbc441441	-0.0119677195
68	0xbd87f7f7	-0.066390924
69	0x3d74f17e	0.059800617
70	0x3d265877	0.04061171
71	0xbc865685	-0.016398678
72	0xbd7cf551	-0.06175739
73	0x3be36990	0.0069400743
74	0x390090ea	0.00012261016
75	0x3cc26d35	0.023733715
76	0xbd66669d	-0.056250203
77	0xbc5653e1	-0.013081522
78	0xbc10339d	-0.008801368
79	0xbcb016bc	-0.021495216
80	0x3cf02bd6	0.029317778
81	0xbd28cb27	-0.041209366
82	0x3d4728a1	0.04862273
83	0x3da99f61	0.08282352
84	0xbd86b8ae	-0.065781936
85	0xbd11666c	-0.035498068
86	0xbd102deb	-0.03520004
87	0x3d0b386e	0.033989362
88	0x3e002903	0.12515645
89	0xbd051924	-0.03249468
90	0x3dd61ac8	0.10454327
91	0xbde66166	-0.11249046
92	0x3d21b1e8	0.039476305
93	0x3bb722d5	0.005588869
94	0xbdba7dc9	-0.09106023
95	0x3b5ebb08	0.003398599
96	0x3cbb6c52	0.0228788
97	0xbb7bfd48	-0.0038450528
98	0x3b0f5436	0.0021870262
99	0xbbbb81df	-0.005722269
100	0x3bdf877f	0.0068215723
101	0xbd1eec48	-0.038799554
102	0x3dacabcc	0.08431205
103	0x3d62ccb5	0.055371005
104	0xbcf625be	-0.030047294
105	0x3d2daed0	0.042403042
106	0x3dc6f157	0.09714001
107	0x3dac5ff4	0.08416739
108	0xbc4e52e0	-0.012593001
109	0x3d6dcdc9	0.05805758
110	0xbc192e40	-0.009349406
111	0x3bbac37e	0.005699574
112	0xbd2d2045	-0.042267103
113	0x3d46ecf5	0.048565824
114	0xbd62738c	-0.055285975
115	0x3c48afe1	0.012248964
116	0xbd7a3f15	-0.061095316
117	0x3c5bed29	0.013423243
118	0xbc3b205d	-0.01142129
119	0xbdc3b575	-0.095560946
120	0x3ca9e6f3	0.020740008
121	0xbd82d052	-0.0638739
122	0xbccf5757	-0.025310202
123	0x3ba253f1	0.0049538543
124	0x3d7aaaf9	0.06119821
125	0xbd0338c2	-0.03203655
126	0x3caf302d	0.021385277
127	0xbdafd8c6	-0.08586268

conv1.lin.weight f4 [128, 50]
0	0xbd9cca8d	-0.07655821
1	0xbe380f1f	-0.17974518
2	0x3de8384c	0.11338863
3	0xbdfb16db	-0.12260219
4	0xba38cd23	-0.0007049611
5	0xbe4d3696	-0.20040354
6	0xbd9b134a	-0.075720385
7	0xbcd5e5a5	-0.02611048
8	0xbcbe8ced	-0.023260558
9	0xbe3f1c1b	-0.18663065
10	0x3dd9740a	0.10617836
11	0xbe8178dd	-0.25287524
12	0x3d7e19e3	0.062036406
13	0xbd6151e9	-0.055009756
14	0x3e037cd9	0.12840594
15	0x3d9c10c0	0.07620382
16	0x3d97e9da	0.074176505
17	0x3d9361d4	0.071963936
18	0x3c030ee1	0.007999153
19	0xbdb6b2cb	-0.08920821
20	0xbad8aca7	-0.0016530947
21	0xbea4d421	-0.32193092
22	0x3c53b85c	0.012922373
23	0x3e05a048	0.13049424
24	0xbc42a58b	-0.011880289
25	0xbe123b59	-0.14280452
26	0xbdb7d106	-0.08975415
27	0xbdff2959	-0.12459058
28	0xbd3e5ee1	-0.046477202
29	0x3e5d1248	0.21589005
30	0xbe7e1836	-0.24813923
31	0xb8e3ba77	-0.00010858935
32	0xbe11452f	-0.14186548
33	0x3dbe312d	0.09286723
34	0x3da30891	0.07960618
35	0x3e2144b1	0.1574886
36	0x3d11dba0	0.03560984
37	0xbdae3e1e	-0.08507942
38	0x3d04e1cf	0.03244191
39	0x3d7e1adb	0.06203733
40	0x3dbfe792	0.093703404
41	0x3dd5bccf	0.10436403
42	0xbe62f0c9	-0.22162165
43	0xbdc10abe	-0.09425877
44	0xbdafbe12	-0.08581175
45	0x3dd03a6d	0.10167394
46	0xbda7c3ae	-0.0819162
47	0x3dda68fd	0.10664556
48	0x3e1be27d	0.15223117
49	0x3d1638e9	0.036675368
50	0x3df1da92	0.11809267
51	0xbe013cf4	-0.12620908
52	0xbc565e04	-0.0130839385
53	0x3e89dcdb	0.26926312
54	0x3e2a820e	0.16651174
55	0x3e4601d5	0.19336636
56	0xbc25966f	-0.010106667
57	0xbe37a9e3	-0.179359
58	0xbe5a0421	-0.21290638
59	0xbe02a52c	-0.1275832
60	0xbd8b680f	-0.06806957
61	0xbe2df40f	-0.16987632
62	0x3b27e902	0.0025621061
63	0xbde9b6d0	-0.11411822
64	0x3d18c2ab	0.037295025
65	0xbca3a7d2	-0.019977484
66	0x3e35cb2b	0.17753284
67	0xbe447217	-0.19184147
68	0xbd1de497	-0.03854808
69	0x3e21844b	0.15773122
70	0xbe0f5723	-0.13998084
71	0xbd59d2e9	-0.053179655
72	0xbcaae0c4	-0.02085913
73	0x3e1de918	0.1542095
74	0xbdf61ea2	-0.120175615
75	0x3ccbbca0	0.024870217
76	0x3d777525	0.060414452
77	0x3e14b58e	0.14522383
78	0xbde17358	-0.11008328
79	0x3d7cee05	0.06175043
80	0xbd98f4fb	-0.07468601
81	0x3c0e0c71	0.008669958
82	0xbee4bb27	-0.44674036
83	0xbe3b78a3	-0.18307738
84	0x3e13befa	0.1442832
85	0x3d308371	0.043094102
86	0x3e04e263	0.12976985
87	0x3e1133f0	0.14179969
88	0x3b105940	0.0022025853
89	0xbe35f5da	-0.17769566
90	0xbcf5ddc9	-0.030012982
91	0xbe2dd1df	-0.1697459
92	0x3dcbfa9a	0.09959908
93	0x3de419d3	0.11137738
94	0xbc242753	-0.010019141
95	0xbc54646d	-0.0129633965
96	0xbdc3cf45	-0.09561018
97	0x3e3bd9d3	0.18344812
98	0x3e32364d	0.17403527
99	0x3d6a0975	0.057137925
100	0x3d52e8a1	0.051491383
101	0x3e14d7ad	0.14535399
102	0xbe51e43b	-0.2049722
103	0xbcd43d9f	-0.02590829
104	0x3daf6992	0.08565058
105	0x3e834342	0.2563725
106	0x3eb476d8	0.3524692
107	0x3e0765ba	0.132224
108	0x3e344683	0.17605023
109	0x3d8d9797	0.06913679
110	0x3b66437d	0.003513544
111	0x3e366d79	0.17815198
112	0x3ed9b308	0.42519403
113	0xbe15f0b9	-0.1464261
114	0x3d60d2e7	0.054888632
115	0x3da8ad63	0.08236196
116	0x3f00999a	0.5023438
117	0xbdeb65c6	-0.11494021
118	0x3e88ba17	0.26704475
119	0xbe553588	-0.20821202
120	0x3d725543	0.059163343
121	0x3dd82fe7	0.10556012
122	0xbe0e15e5	-0.1387554
123	0x3e552ff3	0.20819072
124	0xbe42b2d0	-0.19013524
125	0xbdd307a7	-0.10304194
126	0xbd91af03	-0.07113459
127	0x3e0a9795	0.13534386
128	0x3c5d2bae	0.013499184
129	0xbdb0ed02	-0.08638956
130	0x3de141a5	0.10998849
131	0x3d73ffb3	0.059570026
132	0x3e961fcc	0.29321134
133	0xbe9f5981	-0.31122974
134	0x3e6548da	0.22391072
135	0x3d5a0aae	0.05323284
136	0x3cab04be	0.020876285
137	0xbe17b63c	-0.1481561
138	0x3df76147	0.12079101
139	0x3e051a53	0.12998323
140	0x3c63e2b1	0.013909028
141	0x3da9e511	0.08295644
142	0xbe27b974	-0.16379339
143	0x3db37046	0.08761649
144	0xbe8565bc	-0.2605418
145	0x3e152ea2	0.1456857
146	0x3e414c15	0.18876679
147	0x3eb42344	0.35183156
148	0x3e87409c	0.2641648
149	0xbe83cf3b	-0.25744042
150	0xbc693169	-0.014232972
151	0x3e2ed19e	0.1707215
152	0xbbf92a4b	-0.0076039187
153	0xbed7e526	-0.42167014
154	0xbe993e2c	-0.29930246
155	0x3bbf6c3b	0.0058417595
156	0xbe78ca11	-0.24295832
157	0x3c669131	0.014072702
158	0xbe6e3f7e	-0.23266408
159	0x3d59a2ac	0.05313365
160	0x3ce4a49b	0.027910521
161	0x3e8f585d	0.27997103
162	0xbe74201d	-0.23840375
163	0x3e67d4da	0.2263979
164	0x3e48fe4c	0.19628257
165	0x3d082ead	0.03324764
166	0x3de340cd	0.11096344
167	0xbd95b909	-0.07310683
168	0xbdd34f84	-0.10317901
169	0xbb857449	-0.0040727
170	0x3d80a6dd	0.06281827
171	0xbe1a07e7	-0.15042077
172	0xbdb0fbfe	-0.08641814
173	0xbdb2cdbe	-0.087306485
174	0x3ce7afce	0.028282072
175	0x3e6f1d79	0.23351087
176	0x3dcef4f9	0.101053186
177	0xbe5eeca0	-0.21769953
178	0xbe282d39	-0.16423501
179	0xbd86e2ba	-0.065862134
180	0x3e305977	0.17221628
181	0x3e0dfc4f	0.1386578
182	0x3ece5b83	0.40304193
183	0x3f0c94a6	0.5491432
184	0x3be5bd1b	0.0070110685
185	0xbe587171	-0.21137024
186	0xbda5a99f	-0.08088993
187	0xbc402af9	-0.0117289955
188	0xbe781620	-0.2422719
189	0x3e3fd5b2	0.18733862
190	0xbd3769db	-0.044778686
191	0x3e3c4e60	0.18389273
192	0x3eb7adda	0.35874826
193	0x3e1cfb39	0.15330209
194	0xbddddf76	-0.108336374
195	0x3e74e617	0.23915897
196	0xbe7a21ef	-0.24427007
197	0xbe9da2eb	-0.3078836
198	0xbe21ff00	-0.15819931
199	0xbdc51687	-0.096234374
200	0x3e307809	0.1723329
201	0xbe277b54	-0.1635564
202	0x3dca8035	0.09887735
203	0x3e225410	0.1585238
204	0x3dca48b3	0.098771475
205	0x3dbf4f20	0.09341264
206	0x3e147e0a	0.14501205
207	0xbd956e5f	-0.07296442
208	0xbdf536b6	-0.11973326
209	0x3cdae01c	0.026718192
210	0x3dee4891	0.11634935
211	0xbdc6d599	-0.09708709
212	0xbc23d387	-0.0099991625
213	0x3e687e83	0.2270451
214	0x3e84503e	0.2584247
215	0xbe4cde68	-0.20006716
216	0x3d33b3a7	0.0438725
217	0xbe25fed1	-0.16210486
218	0x3abf3c01	0.0014590026
219	0xbe011de8	-0.12609065
220	0xbc3d17e4	-0.0115413405
221	0xbd9b2160	-0.07574725
222	0x3e02be59	0.12767924
223	0xbdb65ab4	-0.08904019
224	0x3e14fb7f	0.14549063
225	0x3da30345	0.07959608
226	0x3e15fbf4	0.14646894
227	0xbe0a4246	-0.13501844
228	0x3ce4cec6	0.027930629
229	0x3e245a17	0.16049992
230	0xbd3d73e4	-0.0462531
231	0x3a8abcbe	0.0010584814
232	0x3c657391	0.014004604
233	0xbdd6c09a	-0.104859546
234	0x3db0ddd9	0.08636064
235	0x3d50884f	0.050911244
236	0xbe110e1f	-0.14165543
237	0xbe3b4ead	-0.18291731
238	0xbd6048ff	-0.054757114
239	0x3da46736	0.080274984
240	0xbe2b0bc1	-0.16703703
241	0xbbc70db3	-0.006074631
242	0xbdd5ed68	-0.10445672
243	0xbe24369d	-0.16036458
244	0xbc95b751	-0.018275889
245	0xbdda8e3f	-0.106716625
246	0xbd5cce2e	-0.053907566
247	0xbe56e2d6	-0.20984969
248	0x3b33fefd	0.0027465217
249	0xbd5ede66	-0.054411314
250	0xbd9b30f8	-0.075776994
251	0xbdaef6be	-0.08543156
252	0xbdd8229e	-0.10553478
253	0xbe140c89	-0.14457907
254	0x3e9b0657	0.30278274
255	0x3e351fad	0.17687865

conv2.bias f4 [128]
0	0x3e881b0d	0.26583138
1	0x3e249ea1	0.16076137
2	0x3e45715f	0.19281529
3	0x3e33aee0	0.17547178
4	0x3e113e87	0.14184009
5	0xbe302eaf	-0.17205308
6	0x3e57e618	0.21083868
7	0x3e2db999	0.16965331
8	0xbd365f03	-0.044524204
9	0xbe338aac	-0.17533368
10	0xbe2d1a82	-0.16904643
11	0xbe54ff97	-0.20800625
12	0xbe03229b	-0.1280617
13	0x3e31e90c	0.17374057
14	0x3e59d74a	0.21273533
15	0xbe60d998	-0.21958005
16	0xbda36a78	-0.07979292
17	0x3e48d6ac	0.19613141
18	0xbd469ffa	-0.04849241
19	0xbe416646	-0.1888667
20	0xbe40976b	-0.18807761
21	0xbe4ca913	-0.19986372
22	0x3e4fa624	0.20278221
23	0xbd4136e3	-0.047171485
24	0x3e6abaaf	0.22922777
25	0xbe38af3a	-0.18035594
26	0x3e15f91e	0.14645812
27	0x3e533f1a	0.2062954
28	0x3e247a3b	0.16062252
29	0x3e4a1e3b	0.19738095
30	0xbe1fd7f1	-0.15609719
31	0x3e6e21c2	0.23255065
32	0x3e7fbec8	0.24975121
33	0x3e45ee64	0.1932922
34	0x3e5ea74e	0.21743509
35	0xbdeebb96	-0.11656873
36	0x3e5b6476	0.21425042
37	0xbe2f9937	-0.1714829
38	0x3e4d1281	0.2002659
39	0x3e379fff	0.17932127
40	0xbe35f2f6	-0.17768463
41	0xbe3d1d14	-0.18468124
42	0x3e633c92	0.22191074
43	0x3e5e72b5	0.21723445
44	0x3e7e736c	0.24848717
45	0xbe30e67d	-0.17275424
46	0x3e0f41db	0.13989966
47	0x3c0f7445	0.008755748
48	0x3e30cf46	0.17266569
49	0xbe3954a0	-0.18098688
50	0x3e3e1657	0.1856321
51	0xbe4fc587	-0.20290194
52	0xbe2b5183	-0.16730313
53	0x3e2dbf6a	0.1696755
54	0xbe21c581	-0.15797998
55	0x3d7e2076	0.062042676
56	0xbe582f03	-0.21111684
57	0xbe47d25e	-0.19513842
58	0x3e539d3f	0.20665453
59	0x3e7d43ee	0.24732944
60	0x3e1e02d1	0.15430762
61	0x3e5044ca	0.20338741
62	0x3e4af2ae	0.19819137
63	0xbe04592b	-0.1292464
64	0x3e30a487	0.17250262
65	0xbe435f26	-0.19079265
66	0x3e31b569	0.17354359
67	0x3e3071d3	0.1723092
68	0xbd837d2f	-0.06420361
69	0xbdb165df	-0.086620085
70	0xbe0760ab	-0.1322047
71	0x3e36669a	0.17812577
72	0xbe388e09	-0.18022932
73	0xbe1b0d6d	-0.1514184
74	0x3e6f134a	0.23347202
75	0x3e5cb64a	0.21553913
76	0x3c2dec96	0.0106154885
77	0x3e43b205	0.19110878
78	0x3e5a8701	0.21340562
79	0x3e436b54	0.19083911
80	0x3e4868cf	0.19571231
81	0xbe510d30	-0.20415187
82	0x3e20aa4b	0.15689962
83	0x3e45df13	0.19323377
84	0x3e1da185	0.15393646
85	0x3e5f3243	0.21796517
86	0xbe1f5107	-0.15558253
87	0x3e0d7d74	0.13817388
88	0xbe396a3d	-0.18106933
89	0xbe43a5ff	-0.19106291
90	0x3e542d1c	0.20720333
91	0xbe26215c	-0.16223663
92	0x3e55327e	0.20820042
93	0xbe4aa75b	-0.19790404
94	0xbe31576e	-0.17318508
95	0x3e590ff4	0.21197492
96	0x3e75f7bc	0.24020284
97	0x3e3d6972	0.18497255
98	0xbe27335c	-0.16328186
99	0xbe3560ae	-0.17712662
100	0x3e553f37	0.20824896
101	0x3e364cdc	0.17802757
102	0x3e3c1730	0.1836822
103	0x3e4b87e1	0.19876052
104	0xbe04c6cd	-0.12966461
105	0x3e544076	0.20727715
106	0xbd8d477d	-0.06898401
107	0xbe318544	-0.17335993
108	0xbe3dd016	-0.1853641
109	0x3e3491e7	0.17633782
110	0xbe61ba5f	-0.22043751
111	0xbe270429	-0.1631018
112	0xbe3f3f65	-0.18676527
113	0xbdc354a7	-0.095376305
114	0x3e4c34f5	0.19942077
115	0x3e55744d	0.20845146
116	0x3e4a4800	0.19754028
117	0xbe287acd	-0.16453095
118	0x3e6dd682	0.2322636
119	0x3e3eb37f	0.1862316
120	0x3e44e220	0.19226885
121	0x3e510972	0.2041376
122	0x3e2095a9	0.15682091
123	0xbe3f007f	-0.18652533
124	0xbe2fe4d0	-0.17177129
125	0xbdb3d589	-0.08780963
126	0xbd849a19	-0.06474704
127	0xbd26fc14	-0.040767744

conv2.lin.weight f4 [128, 128]
0	0xbd900339	-0.07031865
1	0xbe0c36a0	-0.13692713
2	0x3e765ab8	0.24058044
3	0x3e901759	0.28142813
4	0xbd6b6236	-0.057466708
5	0x3d5ce693	0.05393083
6	0x3e8cf021	0.27526954
7	0x3e87aa57	0.26497146
8	0xbd5eb9ac	-0.05437629
9	0x3e1c33e6	0.15254173
10	0x3e1daeef	0.15398763
11	0xbe81646c	-0.25271928
12	0xbc9e3c59	-0.019315885
13	0xbe9ebd3e	-0.31003755
14	0x3e2fa706	0.17153558
15	0x3cbc9188	0.023018613
16	0xbdc060d4	-0.093934685
17	0xbc5016d2	-0.012700753
18	0x3df88333	0.12134399
19	0xbc398875	-0.011324038
20	0x3dfc3d4c	0.12316379
21	0x3baf9f0a	0.005359535
22	0x3e70ee1e	0.23528334
23	0xbe762ebf	-0.2404127
24	0xbdceaffb	-0.10092159
25	0x3e3a7c0c	0.18211383
26	0x3dbcf86e	0.09227072
27	0x3e0986c0	0.1343031
28	0x3d77d274	0.060503438
29	0x3e053dab	0.13011806
30	0xbc2804af	-0.010255023
31	0x3e0f2381	0.13978387
32	0xbb00a12d	-0.0019627318
33	0xbe4b9962	-0.1988273
34	0xbc00b2f8	-0.0078551695
35	0x3e2d8e23	0.16948752
36	0x3de9096e	0.11378752
37	0x3d9b6202	0.07587053
38	0xbde08b34	-0.10964051
39	0x3d8d7321	0.06906725
40	0x3e66d60f	0.22542594
41	0xbe4383e1	-0.19093277
42	0xbe2f4c25	-0.1711889
43	0x3e3f285f	0.18667744
44	0xbe14bb56	-0.14524588
45	0xbe504b1f	-0.20341156
46	0xbd1d1f73	-0.03836007
47	0x3ee38a02	0.4444123
48	0xbe91805b	-0.2841824
49	0x3d6290db	0.055313926
50	0x3e281e98	0.1641792
51	0xbd3c61f8	-0.045991868
52	0x3ecdcee5	0.4019691
53	0x3d842910	0.064531446
54	0xbd056418	-0.03256616
55	0x3e83c025	0.25732532
56	0x3cbd5afd	0.023114676
57	0xbd01a2d8	-0.03164944
58	0x3ecb3d64	0.39695275
59	0xbdda310b	-0.106538855
60	0x3e027279	0.1273898
61	0x3e302164	0.17200238
62	0xbd3cfd9d	-0.046140302
63	0xbe1b7201	-0.15180208
64	0x3e33b2dd	0.175487
65	0x3e68bf1f	0.22729157
66	0xbe7c0c14	-0.24613982
67	0x3da28dfe	0.07937239
68	0x3e48db65	0.19614942
69	0xbd8fb39c	-0.0701668
70	0xbd91d4b9	-0.07120652
71	0xbe7ddc37	-0.24791037
72	0x3e0b3423	0.13594107
73	0x3e57542f	0.21028207
74	0xbe7cdf0a	-0.24694458
75	0x3c8f6382	0.017503504
76	0xba25a730	-0.00063191634
77	0x3ed5d30e	0.41762584
78	0x3e31bd8e	0.17357466
79	0x3ec78b59	0.389735
80	0x3e40bc98	0.18821943
81	0x3e149161	0.14508583
82	0xbe66abad	-0.22526427
83	0x3d52d48b	0.051472228
84	0x3e0d25d7	0.13783966
85	0x3eaf053a	0.34183675
86	0x3e6ab736	0.22921452
87	0xbe30b71b	-0.17257349
88	0xbe8994db	-0.2687138
89	0xbcc431d3	-0.02394954
90	0xbdf71556	-0.120646164
91	0xbc60d905	-0.0137236165
92	0x3dea88d0	0.11451876
93	0xbd66f8c3	-0.05638958
94	0x3e1bd955	0.15219624
95	0x3e30b79e	0.17257544
96	0x3e98da53	0.29854068
97	0xbd49b2f7	-0.04924294
98	0xbd988548	-0.074472964
99	0x3e705f28	0.23473799
100	0x3e1aa06b	0.15100257
101	0x3e33c19b	0.17554323
102	0x3d4351dc	0.04768549
103	0xbe165efd	-0.14684673
104	0x3dea3f14	0.114378124
105	0x3d7056ac	0.058676407
106	0xbdc527a6	-0.09626703
107	0xbd111271	-0.035417978
108	0x3e29f830	0.16598582
109	0x3cdc99e8	0.026928857
110	0xbe2897ac	-0.16464108
111	0x3e0608a1	0.13089229
112	0xbea68dd5	-0.32530084
113	0x3ea2b16a	0.3177598
114	0xbd6c4863	-0.05768622
115	0x3e0a3484	0.13496596
116	0x3e338d6c	0.17534417
117	0xbd8e3e58	-0.06945485
118	0xbdc50c0d	-0.09621439
119	0x3b835097	0.00400741
120	0x3e650b82	0.22367671
121	0xbdfb0c85	-0.12258247
122	0xbb1eb41f	-0.0024216247
123	0x3f10927a	0.56473505
124	0x3e8fcfcc	0.28088224
125	0xbe1d66a8	-0.15371192
126	0x3cf0ccf7	0.02939461
127	0x3d432fbe	0.047652952
128	0xbdf30419	-0.11866016
129	0xba6ebfcb	-0.0009107559
130	0x3e934586	0.2876398
131	0x3dffebe0	0.124961615
132	0xbe442bde	-0.19157359
133	0x3e311d0e	0.1729624
134	0x3e09d211	0.1345904
135	0x3ea519ee	0.32246345
136	0xbe45ce2a	-0.19316927
137	0x3dd3c028	0.10339385
138	0x3d4bb1a3	0.049729954
139	0xbdafaff3	-0.085784815
140	0x3df1625e	0.1178634
141	0xbdb73e28	-0.08947402
142	0x3c46254a	0.012093851
143	0xbe284f39	-0.16436471
144	0xbc6226c7	-0.013803191
145	0xbdff02bf	-0.12451696
146	0x3d9836f0	0.074323535
147	0x3e526ac2	0.20548537
148	0x3d560282	0.052248485
149	0x3d2496f8	0.040183038
150	0xbd751953	-0.059838604
151	0x3cb2a83d	0.021808738
152	0xbcc15559	-0.023600267
153	0x3ac063af	0.0014678146
154	0xbd609278	-0.054827183
155	0x3e85c7a2	0.2612887
156	0xbda9f2dc	-0.08298275
157	0xb81d8d09	-3.7563066e-05
158	0xbd954cbc	-0.072900265
159	0x3d168308	0.036746055
160	0x3dfc6603	0.12324145
161	0xbdff9c3f	-0.124809735
162	0xbdc5ea0f	-0.09663784
163	0xbbeea7ed	-0.007283202
164	0xbd8c43d6	-0.06848876
165	0xbd75877e	-0.05994367
166	0xbe432420	-0.1905675
167	0x3df0871a	0.117445186
168	0x3e543ea5	0.20727022
169	0x3ba4cb3b	0.00502911
170	0xbd690cd0	-0.056896985
171	0xbd62bea5	-0.055357594
172	0x3c7d7fba	0.015472347
173	0x3c7864b8	0.015160732
174	0x3d51fad7	0.05126461
175	0x3dfb8b95	0.122824825
176	0xbce5bc84	-0.028043993
177	0xbdd42c69	-0.10360033
178	0x3e621d62	0.22081521
179	0x3e213736	0.15743718
180	0x3e47b358	0.19502008
181	0xbd1ca757	-0.038245525
182	0xbe429711	-0.1900294
183	0x3d930a21	0.07179666
184	0x3e0743fa	0.13209525
185	0xbd2dae9d	-0.042402852
186	0xbe3fe72f	-0.18740533
187	0x3ce23816	0.027614634
188	0x3e182945	0.14859493
189	0xbd660675	-0.0561585
190	0xbd81a7ce	-0.06330834
191	0x3dcc9d3f	0.0999093
192	0x3d76613a	0.060151316
193	0xbd84599d	-0.06462405
194	0xbe15f7e2	-0.14645341
195	0x3d2061eb	0.03915588
196	0x3d714eef	0.058913168
197	0x3c5e8a93	0.013582843
198	0xbe434481	-0.19069101
199	0x3d16b367	0.036792185
200	0xbda010db	-0.07815715
201	0x3e3699ff	0.17832182
202	0xbe3b3641	-0.18282415
203	0xbe1a47c6	-0.15066442
204	0x3e673dfe	0.22582242
205	0x3e663626	0.22481593
206	0x3e20f8ce	0.15719911
207	0x3e200a59	0.15628947
208	0x3e8c3554	0.27384436
209	0x3e0b4db2	0.13603857
210	0xbd9727d5	-0.07380644
211	0x3dd4d3a8	0.10391933
212	0x3b8afed0	0.004241802
213	0xbd003bd1	-0.031307045
214	0x3db8952f	0.090128295
215	0x3d776952	0.060403176
216	0xbdeb6d07	-0.11495405
217	0x3e534470	0.20631576
218	0xbe5d1b57	-0.2159246
219	0xbe71a88b	-0.2359945
220	0xbd282b43	-0.041056883
221	0x3e0a21bd	0.13489433
222	0xbe02e16b	-0.12781303
223	0x3d624c3c	0.055248484
224	0x3e4e06f0	0.20119834
225	0xbd5c5aab	-0.053797405
226	0xbe0e2c40	-0.13884068
227	0x3e523d40	0.20531178
228	0x3c4a9740	0.012365162
229	0x3df12b8a	0.117758825
230	0xbc03ecc3	-0.008052054
231	0x3d6bc6b0	0.05756253
232	0x3e37a08c	0.17932338
233	0xbe2bb4c2	-0.16768172
234	0x3d2d4d49	0.042310033
235	0x3dc1451b	0.09437009
236	0x3d6aac2c	0.057293102
237	0x3c0f92a0	0.0087629855
238	0xbe899186	-0.26868838
239	0x3e0a00b5	0.13476832
240	0xbe8fd7a3	-0.28094205
241	0x3e05a229	0.1305014
242	0xbdfab96e	-0.12242399
243	0x3e49b745	0.19698818
244	0xbd3cbff8	-0.046081513
245	0x3e120664	0.1426025
246	0xbe6ff1ba	-0.23432055
247	0x3de0868c	0.10963163
248	0x3e0741ec	0.13208741
249	0x3e05c51c	0.13063473
250	0x3d9274a7	0.07151156
251	0x3eab2f51	0.33434537
252	0x3e37b180	0.17938805
253	0x3d26f969	0.0407652
254	0x3d404b3c	0.04694675
255	0x3dd6a99e	0.10481571

conv3.bias f4 [2]
0	0xbee0ea3b	-0.43928704
1	0x3ee0ea3b	0.43928704

conv3.lin.weight f4 [2, 128]
0	0xbec5b90b	-0.3861774
1	0xbf0736d8	-0.5281806
2	0xbe575c12	-0.21031216
3	0xbef8c6cb	-0.48589167
4	0xbeb1c812	-0.34722954
5	0x3f0259f7	0.50918525
6	0xbee85208	-0.45375085
7	0xbec38591	-0.3818784
8	0x3eac927c	0.3370551
9	0x3e4b3d50	0.19847608
10	0x3eac027d	0.33595648
11	0x3dced5ac	0.100993484
12	0x3ea98e31	0.33116296
13	0xbefc034d	-0.49221268
14	0xbecb05eb	-0.39652953
15	0x3e8d7a4d	0.2763237
16	0x3eec447e	0.46146005
17	0xbf010449	-0.50397164
18	0x3eff8f07	0.4991381
19	0x3e6a02c7	0.22852622
20	0x3ec6c02a	0.38818485
21	0x3e95dbf5	0.29269376
22	0xbf0bfa08	-0.5467839
23	0x3edd4dab	0.43223318
24	0xbec785f0	-0.38969374
25	0x3ddc89ce	0.10768472
26	0xbe8fb13b	-0.28064904
27	0xbef71561	-0.48258498
28	0xbeaf827b	-0.34279236
29	0xbec3c748	-0.38237977
30	0x3ee9a875	0.45636335
31	0xbef475b4	-0.4774605
32	0xbf1c6361	-0.6108914
33	0xbf27d4b8	-0.6555896
34	0xbf25f03d	-0.648197
35	0x3f21b379	0.6316448
36	0xbf227eb7	-0.634746
37	0x3ea282c2	0.31740385
38	0xbf22aa66	-0.6354126
39	0xbeeaee4c	-0.4588493
40	0x3e5ce543	0.21571831
41	0x3ea7d386	0.32778567
42	0xbf139899	-0.5765472
43	0xbebad0db	-0.3648747
44	0xbeb555f3	-0.35417137
45	0x3e8727af	0.26397464
46	0xbf0055fe	-0.50131214
47	0x3ef9e8ed	0.4881052
48	0xbef3fc95	-0.47653642
49	0x3ee1469d	0.43999186
50	0xbe33842b	-0.17530887
51	0x3d5e889c	0.0543295
52	0x3e85aa67	0.2610657
53	0xbf0108d4	-0.50404096
54	0x3edca53f	0.43094823
55	0x3e9ae5ee	0.30253547
56	0x3cfbf850	0.030758053
57	0x3e7a50b7	0.24444853
58	0xbeed1fe3	-0.4631339
59	0xbef5aed6	-0.47984952
60	0xbe1e2cc2	-0.15446761
61	0xbf033be0	-0.51263237
62	0xbe707f24	-0.23486
63	0x3f1e440d	0.6182259
64	0xbf042ba5	-0.51629096
65	0x3de39fbd	0.11114452
66	0xbed2b138	-0.41150832
67	0xbef94e35	-0.4869248
68	0x3f1087e0	0.5645733
69	0x3ef4cfb0	0.47814703
70	0x3f0ce1e3	0.55032176
71	0xbeef7dea	-0.46775752
72	0x3ea3fd4d	0.3202919
73	0x3ed88899	0.42291716
74	0xbecf8c5d	-0.40536776
75	0xbef5c04b	-0.4799827
76	0x3e4d60dd	0.20056482
77	0xbf1aa987	-0.6041493
78	0xbeacd111	-0.33753255
79	0xbeeb730d	-0.45986214
80	0xbeb38d06	-0.3506853
81	0x3ea5dc1c	0.32394493
82	0xbe867825	-0.26263538
83	0xbf076512	-0.52888596
84	0xbedaac33	-0.42709503
85	0xbedaa003	-0.42700204
86	0x3e8a2f36	0.26989144
87	0xbd6a2ea3	-0.057173382
88	0x3e769115	0.24078782
89	0x3edb097a	0.42780668
90	0xbf0fdd70	-0.5619726
91	0x3e773ec4	0.24145037
92	0xbf193492	-0.5984584
93	0x3e809493	0.25113353
94	0x3ed580d6	0.41699857
95	0xbeacd19f	-0.33753678
96	0xbf05331a	-0.520311
97	0xbd5f20cd	-0.05447464
98	0x3e9f82f7	0.31154606
99	0x3ebf5965	0.3737289
100	0xbf206303	-0.6265108
101	0xbec33bdb	-0.38131604
102	0xbec83f67	-0.39110872
103	0xbeea51fa	-0.45765668
104	0x3ee9d773	0.45672187
105	0xbeb8ae17	-0.3607032
106	0x3edd361c	0.43205345
107	0x3ea9ca5f	0.3316221
108	0x3ec08399	0.376004
109	0xbf11c6ce	-0.56943977
110	0x3ed9b75b	0.42522702
111	0x3e0f0abe	0.13968942
112	0x3ebc3a29	0.36763123
113	0x3ef8e718	0.4861381
114	0xbe60dc24	-0.21958977
115	0xbec82bd0	-0.39095926
116	0xbf229f9d	-0.635248
117	0x3f0ba13c	0.545429
118	0xbed455bf	-0.4147167
119	0xbbaf5cc9	-0.005351637
120	0xbf0cfc09	-0.55072075
121	0xbeac0962	-0.3360091
122	0xbece7d27	-0.4032986
123	0x3ed528a3	0.41632566
124	0x3cf0c868	0.029392436
125	0x3ea4eb00	0.3221054
126	0x3eecdf59	0.4626415
127	0x3f068f06	0.52561986
128	0x3eedc0e1	0.46436217
129	0x3f0cec5b	0.5504815
130	0x3ee30137	0.44336864
131	0x3f107186	0.56423223
132	0x3e19ffc7	0.15038978
133	0xbece40ed	-0.4028391
134	0x3da76b74	0.08174792
135	0x3e7e4068	0.24829257
136	0xbee02ad9	-0.4378269
137	0xbebf17dd	-0.37322894
138	0xbee6e7db	-0.45098767
139	0xbead1362	-0.3380385
140	0xbf2cec2f	-0.6754789
141	0x3ed4d4f4	0.4156872
142	0x3f23bebd	0.6396292
143	0xbe8fe60f	-0.28105208
144	0xbee9e28f	-0.45680663
145	0x3f004e42	0.5011941
146	0xbe95839d	-0.29201975
147	0xbe6d2e8e	-0.2316229
148	0xbe840315	-0.257836
149	0xbe0b2b88	-0.13590825
150	0x3f064dce	0.5246247
151	0xbeb3c52c	-0.35111368
152	0x3f20cd4a	0.62813246
153	0xbec651a5	-0.38734165
154	0x3ee4f5c7	0.44718763
155	0x3f358c90	0.70917606
156	0x3ef79dac	0.48362482
157	0x3ecc256d	0.39872304
158	0xbea51fb9	-0.32250765
159	0x3e79ffe2	0.24414018
160	0x3ea5c4f7	0.32376835
161	0x3e9b1ec7	0.3029692
162	0x3f0e77bd	0.55651456
163	0xbea1ae4e	-0.31578296
164	0x3f1076ce	0.5643128
165	0xbeaa22ec	-0.33229768
166	0x3eb6bbc4	0.3569013
167	0x3eb454d5	0.35220972
168	0xbed08bf6	-0.40731782
169	0xbe7b0d7e	-0.24516866
170	0x3eb52fca	0.35388023
171	0x3efd751d	0.49503413
172	0x3efc4087	0.4926798
173	0xbe5d137c	-0.21589464
174	0x3ee71530	0.45133352
175	0xbe8b433c	-0.27199733
176	0x3e7b92ed	0.24567766
177	0xbed5d8ba	-0.41766912
178	0x3ee06362	0.43825823
179	0xbecb0a8e	-0.3965649
180	0xbeb33476	-0.35000962
181	0x3f2268c9	0.6344114
182	0xbe96a5a1	-0.2942324
183	0xbf0ba667	-0.54550785
184	0xbed56499	-0.41678312
185	0xbeb65ac5	-0.35616127
186	0x3eaf3366	0.342189
187	0x3ec3036f	0.38088557
188	0x3e656f13	0.22405653
189	0x3f35817d	0.7090071
190	0x3ef456d1	0.47722486
191	0xbeec8fe8	-0.46203542
192	0x3f24fa11	0.6444407
193	0xbe87f83b	-0.26556572
194	0x3f341ed2	0.7035953
195	0x3eb06f29	0.34459808
196	0xbf21d6b3	-0.6321823
197	0xbe871fdb	-0.2639149
198	0xbea19f16	-0.31566685
199	0x3e20f116	0.15716967
200	0xbe2c0da6	-0.16802081
201	0xbef2b5ee	-0.47404426
202	0x3f15c6dd	0.58506566
203	0x3e40e784	0.18838316
204	0xbf04d827	-0.5189232
205	0x3ebc6f51	0.36803678
206	0x3edf5386	0.4361841
207	0x3f0cbedf	0.54978746
208	0x3efc44ec	0.49271333
209	0xbdcbf4c8	-0.09958798
210	0x3ed02d54	0.40659583
211	0x3f0d39c4	0.5516627
212	0x3ee1e328	0.4411862
213	0x3f04a4bf	0.5181388
214	0x3ccb5c72	0.024824355
215	0x3e6a5b57	0.22886406
216	0xbeb9eea4	-0.3631488
217	0xbe00de8b	-0.12584893
218	0x3eff3338	0.49843764
219	0xbede4e09	-0.4341891
220	0x3e8e98f8	0.2785108
221	0xbe241a85	-0.16025741
222	0xbec21813	-0.37908992
223	0x3ec3b3fc	0.38223255
224	0x3f2d5049	0.6770063
225	0x3ed1ce86	0.40977877
226	0xbe504bdb	-0.20341437
227	0xbeb7e36b	-0.35915694
228	0x3f1cb92a	0.6122004
229	0x3e9d9fd0	0.3078599
230	0x3ee550c4	0.44788182
231	0x3efaa306	0.48952502
232	0xbf02a3b3	-0.51031035
233	0x3efd5a0b	0.4948276
234	0xbec7c54a	-0.39017707
235	0xbe7d783b	-0.24752896
236	0xbf01dfc9	-0.50732094
237	0x3ea8b0b4	0.32947314
238	0xbdbaacd3	-0.09114995
239	0xbe9fc08d	-0.31201592
240	0xbd3b90e3	-0.04579247
241	0xbf1a28a0	-0.6021824
242	0x3f055103	0.5207674
243	0x3f0b4c31	0.54413134
244	0x3ea6e102	0.32593542
245	0xbf2b0d71	-0.66817385
246	0x3eda8b0b	0.42684206
247	0x3eac608d	0.33667412
248	0x3f118e1e	0.5685748
249	0x3f1367d8	0.5758033
250	0x3ed11777	0.40838215
251	0xbdbe213a	-0.09283681
252	0xbea365b7	-0.3191354
253	0xbedfcb6e	-0.43709892
254	0xbea6d45f	-0.325839
255	0xbea14dda	-0.3150471
