RL_MIM/model.pkl (torch, 95239 bytes, 6 tensors)

conv1.bias f4 [128]
0	0xbc203bf0	-0.009779915
1	0xbb2dd66c	-0.002652551
2	0x3b4658db	0.0030265364
3	0x3df1ce8d	0.118069746
4	0xbd8ce5cc	-0.06879768
5	0xbd585e2a	-0.052824177
6	0xbc884ece	-0.01663914
7	0xbd60e308	-0.054904014
8	0x3d4c28b5	0.04984351
9	0x3b4a69a6	0.0030885725
10	0x3aa8b07b	0.0012869978
11	0xbade924d	-0.0016980857
12	0xbc51f149	-0.0128138745
13	0xbd10125a	-0.03517375
14	0x3cfd748e	0.030939367
15	0xbddbfe0d	-0.10741816
16	0x3e385bd4	0.1800378
17	0xbde164db	-0.11005565
18	0xbd706519	-0.058690164
19	0xbd03a6d6	-0.03214153
20	0xbc262d7d	-0.010142681
21	0x3d58ffef	0.052978452
22	0xbd6112ac	-0.054949448
23	0x3d8fbe46	0.07018714
24	0xbca61001	-0.020271303
25	0x3d446af3	0.047953557
26	0x3d8b9a47	0.068165354
27	0x3d1010d7	0.03517231
28	0x3d7e9923	0.06215776
29	0xbe11f24f	-0.1425259
30	0xbc5c2a26	-0.013437783
31	0x3d43365c	0.047659263
32	0xbd4cf406	-0.050037406
33	0xbd82d61c	-0.06388494
34	0x3cf1a54e	0.029497769
35	0xbd702f4a	-0.05863885
36	0xbd9ec492	-0.077523366
37	0xbe1d49de	-0.1536021
38	0xbc826c99	-0.015920924
39	0xbd036a51	-0.032083813
40	0xbd821dad	-0.063533165
41	0x3cb8fdf0	0.022582024
42	0xbb9ff9d5	-0.004882077
43	0x3e26a3f5	0.16273482
44	0xbd7a187d	-0.06105851
45	0x3a6312e8	0.000866218
46	0xbc50f483	-0.012753609
47	0x3d6042dc	0.054751262
48	0x3bc0eb68	0.0058874376
49	0x3d83991c	0.06425688
50	0x3d881c3f	0.066460125
51	0x3d83b1e3	0.064304136
52	0x3b88d67d	0.0041759596
53	0x3d09bbc2	0.033626325
54	0xba8d0eb9	-0.0010761834
55	0x3c1cfd50	0.009581879
56	0xbda07832	-0.078354254
57	0xbd808568	-0.06275445
58	0xbc097b21	-0.008391173
59	0xbcae9210	-0.021309882
60	0xbd44bf43	-0.048033964
61	0xbc69e89d	-0.014276651
62	0xbe015b1b	-0.1263241
63	0xbd6418a0	-0.055687547
64	0xbda79397	-0.081824474
65	0x3e3a14ed	0.18172045
66	0x3db19559	0.08671064
67	0xbe19df1b	-0.15026514
68	0xbdc8f843	-0.09812977
69	0xbcb4cd4e	-0.022070553
70	0xbd74f8e7	-0.059807684
71	0x3ca682b8	0.020326003
72	0xbd477df7	-0.048704114
73	0xbdb6c94c	-0.08925113
74	0xbd20156c	-0.03908293
75	0xbda4462b	-0.08021196
76	0xbdfbfc39	-0.12303967
77	0x3cd8df86	0.026473772
78	0x3bccb068	0.006246615
79	0xbd3abfb2	-0.04559297
80	0xbdd1d8c3	-0.10246422
81	0xbc0c2414	-0.008553524
82	0xbdf0dfb5	-0.11761419
83	0x3e54a5a5	0.20766313
84	0x3d3cb62c	0.04607217
85	0x3d7489b6	0.059701644
86	0xbe348abe	-0.17631051
87	0x3dbeb6c2	0.09312202
88	0x3ebc3241	0.3675709
89	0x3dd08072	0.10180749
90	0xbc76b6e8	-0.015058257
91	0x3e03fda6	0.12889728
92	0x3bef3955	0.0073005357
93	0xbc650233	-0.013977575
94	0x3d844ff0	0.06460559
95	0xbe01df22	-0.12682775
96	0x3d142307	0.036166217
97	0x3bdf793c	0.006819872
98	0xbd80d3eb	-0.0629042
99	0xbd1c6a85	-0.038187522
100	0xbdfe7468	-0.124245465
101	0xbdb6f1b6	-0.089328215
102	0xbc8bbb8b	-0.0170572
103	0x3d5aec2c	0.053447887
104	0x3e08bf5f	0.13354252
105	0xbd8d2177	-0.068911485
106	0x3cbafc14	0.022825278
107	0xbe4297fb	-0.19003288
108	0xbc7d9085	-0.015476351
109	0xbc9253ac	-0.017862163
110	0xbc6af8a9	-0.014341512
111	0xbd0c74a5	-0.03429093
112	0x3d290755	0.041266758
113	0x3e089709	0.13338865
114	0xbd1109da	-0.035409786
115	0xbda446ff	-0.08021354
116	0x3e100a89	0.14066519
117	0xbdb58adf	-0.08864378
118	0x3d98f04d	0.07467709
119	0xbdc948b0	-0.09828317
120	0xbe825296	-0.25453633
121	0xbded4fa2	-0.115874544
122	0xbdffe4c5	-0.12494806
123	0xbe03e7fb	-0.12881462
124	0xbd07553b	-0.033040266
125	0xbd036f80	-0.032088757
126	0x3d26ef12	0.04075534
127	0xbdde60c2	-0.10858299

conv1.lin.weight f4 [128, 50]
0	0xbd827274	-0.063694865
1	0x3e43f485	0.19136246
2	0xbe093de2	-0.13402513
3	0xbd9a284f	-0.075272195
4	0xbc2e6b6a	-0.010645727
5	0x3e0e5fe4	0.13903767
6	0x3dfb22b9	0.12262482
7	0x3dd17dc1	0.10229064
8	0x3e0cd233	0.1375206
9	0xbc56ca6c	-0.013109785
10	0xbbdabf17	-0.0066756117
11	0x3c99be0a	0.018767375
12	0xbdee1e03	-0.11626818
13	0xbe0941b6	-0.13403973
14	0xbe5d99b8	-0.2164067
15	0xbe652d0e	-0.22380468
16	0x3d33c33f	0.043887373
17	0xbae78c74	-0.001766576
18	0x3e844670	0.2583499
19	0xbe44a637	-0.19204031
20	0x3d3ca3ea	0.046054758
21	0xbbd92fca	-0.0066280114
22	0x3df83e51	0.12121261
23	0x3da1e283	0.07904532
24	0xbd19e5e5	-0.03757276
25	0x3ca79210	0.02045539
26	0x3dfe59ec	0.12419495
27	0xbd15fae9	-0.03661624
28	0x3cf7aede	0.03023475
29	0x3dcdc5c3	0.10047486
30	0x3e3e012c	0.18555135
31	0xbc039729	-0.008031645
32	0x3d8fba90	0.07018006
33	0xbc93dda5	-0.018050024
34	0x3e261ebd	0.16222663
35	0xbc18a5a4	-0.009316836
36	0xbddf0be5	-0.108909406
37	0xbe580844	-0.21096903
38	0xbdd203cb	-0.1025463
39	0x3e415e27	0.18883573
40	0x3de8ed5d	0.113733985
41	0xbdb7b4a6	-0.08970003
42	0x3e5b9048	0.21441758
43	0x3e4f54cb	0.2024719
44	0x3dd28ccb	0.102807604
45	0xbe88309d	-0.2659959
46	0xbdaee767	-0.0854023
47	0xbd1d5440	-0.038410425
48	0x3dc43a34	0.09581414
49	0x3d8f6915	0.07002465
50	0x3c3225be	0.010873256
51	0x3e1bbbce	0.1520836
52	0x3e8e2b14	0.2776724
53	0xbdb7f51a	-0.08982296
54	0x3e0af313	0.13569288
55	0xbd77e797	-0.060523596
56	0xbe4e32a5	-0.20136507
57	0x3da29676	0.079388544
58	0xbd98d1e8	-0.074619114
59	0x3c12c2ee	0.008957608
60	0x3da8ccca	0.082421854
61	0xbc326dd7	-0.010890446
62	0x3eab217c	0.33423984
63	0xbc8b3f2a	-0.016997892
64	0x3ea0a333	0.3137451
65	0x3d9ec5a8	0.07752544
66	0xbe13cc70	-0.14433455
67	0xbe095049	-0.13409533
68	0xbec9b7c0	-0.39398003
69	0x3e6a2a2c	0.2286765
70	0x3db9b270	0.090672374
71	0x3ea97ad7	0.33101532
72	0x3c254246	0.010086602
73	0x3c9126ac	0.017718635
74	0xbe4bc605	-0.19899757
75	0x3c91a579	0.017779099
76	0x3d9b62ea	0.07587226
77	0xbdd98e1c	-0.10622808
78	0x3e240b83	0.16020016
79	0x3e91b973	0.284618
80	0xbe76f7cc	-0.24117965
81	0x3e4b692b	0.19864337
82	0x3d97b8a3	0.074082635
83	0x3d4cd209	0.050004993
84	0xbdcf5c99	-0.101250835
85	0xbdec7321	-0.115453966
86	0xbe2bb04b	-0.16766469
87	0x3db7c485	0.0897303
88	0x3e6561c9	0.22400583
89	0x3dfd27f3	0.12361135
90	0xbd9806bd	-0.0742316
91	0xbdd017ba	-0.101607755
92	0x3e2f8d91	0.17143847
93	0xbc4fc9a7	-0.012682355
94	0xbe082954	-0.13297015
95	0x3e7c3efa	0.24633399
96	0xbefdd827	-0.49578974
97	0xbe828022	-0.25488383
98	0x3c69dd11	0.014273898
99	0x3df24482	0.11829473
100	0xbd07d55d	-0.033162463
101	0xbe3eea58	-0.18644083
102	0xbe25b238	-0.16181266
103	0xbe8b739e	-0.27236646
104	0x3ed2bbf7	0.4115903
105	0x3d6786f3	0.056525182
106	0xbea461e7	-0.32105944
107	0x3e0555dd	0.13021035
108	0x3ddedb2e	0.10881649
109	0x3dc166dd	0.09443448
110	0xbe0e9ea8	-0.1392771
111	0x3e0cb313	0.13740186
112	0x3f08f4fc	0.53498816
113	0x3e06c3c6	0.13160619
114	0x3ed9e722	0.42559153
115	0x3df18c1a	0.117943004
116	0xbf0bf7dc	-0.5467508
117	0xbd96319f	-0.07333683
118	0xbed2d957	-0.41181442
119	0x3ea85092	0.3287397
120	0x3e9dde3c	0.30833614
121	0x38eba0b4	0.000112356065
122	0xbe881745	-0.26580253
123	0x3d5f243a	0.054477908
124	0xbe2cd93c	-0.16879743
125	0x3d8ab793	0.06773295
126	0x3ccef4ad	0.025263155
127	0x3dd35a92	0.10320009
128	0x3e904e20	0.28184605
129	0x3df1d6de	0.11808561
130	0xbe8c78ac	-0.27435815
131	0x3ed5fd72	0.41794926
132	0x3ea777cc	0.32708585
133	0xbd58b6e5	-0.052908797
134	0xbdb2168e	-0.08695708
135	0xbaef46fb	-0.0018255407
136	0x3e60a5fb	0.21938317
137	0xbdbbf159	-0.09176893
138	0x3eb8c138	0.36084914
139	0xbe5b1305	-0.21393974
140	0xbdd67414	-0.10471359
141	0xbd2e552c	-0.042561695
142	0x3ea76ed2	0.32701737
143	0x3e9d35e2	0.30705172
144	0xbe666f60	-0.22503424
145	0xbdc24062	-0.09484936
146	0xbf0b44d3	-0.5440189
147	0x3bb050db	0.0053807325
148	0x3db18f07	0.086698584
149	0x3e883eb9	0.26610354
150	0xbe411b12	-0.18857983
151	0xbe225b41	-0.15855123
152	0xbdedcca4	-0.11611298
153	0x3e839bf6	0.25704926
154	0x3e12b5db	0.14327185
155	0xbd463df3	-0.048398923
156	0x3dadde80	0.08489704
157	0xbda7b6a9	-0.081891365
158	0x3deded78	0.11617559
159	0xbe4458a6	-0.19174442
160	0xbb0ba5ee	-0.0021308619
161	0xbe538b65	-0.20658644
162	0x3e5174cd	0.20454712
163	0xb7af6743	-2.090971e-05
164	0xbead0007	-0.33789083
165	0xbd05a614	-0.032629088
166	0xbeb306c6	-0.34966105
167	0x3e36f534	0.17866975
168	0x3d6fa8f3	0.058510732
169	0xbe84128b	-0.25795397
170	0x3dd99a0f	0.106250875
171	0x3d1aae03	0.037763607
172	0x3bedeecf	0.007261134
173	0xbe2f0c75	-0.17094596
174	0x3d34e66b	0.044165056
175	0x3e143c09	0.14476027
176	0xbd1ff6bc	-0.039053664
177	0x3e275652	0.16341522
178	0xb80a858a	-3.3026132e-05
179	0xbe284441	-0.16432287
180	0x3e652ab8	0.22379577
181	0xbed13b13	-0.40865383
182	0xbe54a394	-0.20765525
183	0x3d720faa	0.05909697
184	0x3cc2a33c	0.023759477
185	0x3cda8502	0.026674751
186	0x3e9480a8	0.29004407
187	0x3e8210d0	0.25403452
188	0xbdceab9d	-0.100913264
189	0xb9bdbe03	-0.0003619046
190	0xbd20956c	-0.039205
191	0x3ce677f8	0.028133377
192	0x3e2f1e0b	0.17101304
193	0xbc4fcfd7	-0.01268383
194	0x3e8fa3e3	0.28054723
195	0x3c8e6ba8	0.017385319
196	0x3ed28205	0.41114822
197	0x3dc24330	0.09485471
198	0x3ddf20de	0.10894941
199	0xbe589332	-0.211499
200	0xbdce5621	-0.100750215
201	0xbc978d46	-0.018499982
202	0xbcd2e8ac	-0.025745712
203	0xbe767b55	-0.24070485
204	0x3d80a85b	0.06282111
205	0xbd8218c8	-0.06352383
206	0x3d96c069	0.07360918
207	0x3de6b95e	0.11265825
208	0xbe8acd69	-0.2710984
209	0xbc4a1201	-0.012333394
210	0xbdad5820	-0.08464074
211	0xbc50fc0f	-0.012755408
212	0xbe7da13c	-0.24768537
213	0x3d5dc455	0.054142315
214	0x3dfe629b	0.12421151
215	0xbdf4ebcc	-0.11959037
216	0xbf2b1ea4	-0.6684363
217	0x3e344fa2	0.17608503
218	0x3ec9a292	0.39381844
219	0x3e7f2624	0.24916893
220	0x3d2d524e	0.04231482
221	0x3e7f2c30	0.249192
222	0x3d82a1fe	0.06378554
223	0x3e4688e7	0.19388162
224	0xbe4eb8de	-0.20187709
225	0x3d8f7068	0.07003862
226	0x3d1170c4	0.035507932
227	0x3ea811df	0.32826135
228	0x3dde10e1	0.10843063
229	0x3d6e3c67	0.058163073
230	0x3decd3ec	0.115638584
231	0x3e33e1dd	0.17566629
232	0xbe1a511e	-0.15070006
233	0x3f1d9228	0.6155114
234	0x3d2588d6	0.0404137
235	0x3ebcd328	0.3687985
236	0x3ea0e84e	0.31427234
237	0x3d8cf743	0.06883099
238	0xbde75d3d	-0.11297081
239	0xbe8a2eed	-0.26988927
240	0xbdbe9f8f	-0.09307777
241	0xbdb98140	-0.090578556
242	0x3ed8427b	0.4223822
243	0xbef16315	-0.47145906
244	0xbd7c9ff2	-0.061675973
245	0x3da74abe	0.08168553
246	0xbe82e5db	-0.2556599
247	0xbc10fb6f	-0.008849009
248	0x3cd439bc	0.025906436
249	0x3d199ea3	0.037504803
250	0x3e58ca63	0.21170954
251	0xbd64d62a	-0.055868305
252	0xbe3234b8	-0.17402923
253	0xbdaac7c4	-0.083388835
254	0xbe0baf7f	-0.13641165
255	0x3e4a7f1d	0.19775052

conv2.bias f4 [128]
0	0x3e46655c	0.19374603
1	0xbd79b5ec	-0.06096451
2	0xbe4173c3	-0.18891816
3	0xbd8bf28c	-0.068333715
4	0x3db67f9e	0.0891106
5	0x3e3177d2	0.17330864
6	0xbd6dc42d	-0.058048416
7	0x3dcab3c5	0.098975696
8	0xbdc91365	-0.09818152
9	0x3eb1be8e	0.34715694
10	0xbdb05309	-0.08609588
11	0xbe74e71c	-0.23916286
12	0xbe006ca6	-0.12541446
13	0xbd75ba9c	-0.059992418
14	0xbe10bd80	-0.14134789
15	0xbd94dd9c	-0.07268831
16	0xbd9aef5c	-0.075651854
17	0x3dfb7d2a	0.122797325
18	0xbd6b6f80	-0.05747938
19	0xbdaa5bb5	-0.08318273
20	0x3f09f065	0.5388244
21	0x3da708b3	0.08155956
22	0xbd8da7a4	-0.069167405
23	0x3e418dfb	0.18901818
24	0xbd5f3a12	-0.05449874
25	0x3dcfc9c5	0.10145906
26	0xbede1b90	-0.43380404
27	0x3eb562fd	0.35427085
28	0xbe11c296	-0.14234385
29	0x3cedc91f	0.029026566
30	0xbd9170ff	-0.071016304
31	0xbd9e6571	-0.07734192
32	0xbd0e4ed5	-0.03474315
33	0x3d9f8a14	0.07790008
34	0xbe245ef2	-0.16051844
35	0x3df5544f	0.11978971
36	0x3e004af9	0.125286
37	0x3e08232a	0.13294664
38	0xbd946e3d	-0.07247589
39	0x3eaf9ac2	0.34297758
40	0xbda704a3	-0.08155181
41	0xbf344583	-0.70418566
42	0x3dbf7c0d	0.09349833
43	0x3dfa8736	0.12232821
44	0x3e2cab7b	0.1686229
45	0xbd77cb23	-0.06049646
46	0x3ddf39af	0.10899674
47	0x3e16f9af	0.14743684
48	0xbd9a620c	-0.07538232
49	0xbdaa52d2	-0.08316578
50	0xbdd530af	-0.10409676
51	0x3eb662ce	0.35622257
52	0x3ed49f58	0.4152782
53	0x3d94515c	0.072420806
54	0xbd86b8ae	-0.065781936
55	0xbeb6ddc6	-0.35716075
56	0x3d9ef50f	0.07761585
57	0x3db24d59	0.08706159
58	0x3deadb1a	0.114675716
59	0x3e85ca90	0.26131105
60	0xbde145fe	-0.10999678
61	0x3e03b5c1	0.12862302
62	0xbe277c8e	-0.16356108
63	0xbe2d48a5	-0.16922243
64	0xbe2c87c3	-0.16848664
65	0x3e37cd84	0.17949492
66	0x3dfda850	0.12385619
67	0x3f293665	0.66098624
68	0xbdd8503d	-0.10562179
69	0xbda66b25	-0.08125905
70	0xbe14431b	-0.14478724
71	0x3d96179a	0.073287204
72	0xbda41261	-0.08011318
73	0x3dd34f47	0.10317855
74	0xbd3a1773	-0.04543252
75	0xbdb34f86	-0.08755402
76	0xbe2402e3	-0.16016726
77	0x3e8c2ca9	0.27377823
78	0xbe932275	-0.28737226
79	0x3e174e78	0.14776027
80	0x3dd5c9cc	0.1043888
81	0x3dd7c1b1	0.105349906
82	0xbd846fb5	-0.06466619
83	0x3ddf564b	0.10905131
84	0x3dcee4f4	0.10102263
85	0xbe41094c	-0.18851203
86	0xbd6b2b83	-0.057414543
87	0xbe62ed86	-0.2216092
88	0xbe3105c9	-0.17287363
89	0xbe60037d	-0.2187633
90	0x3e24d7a6	0.16097888
91	0x3e06e5d5	0.13173611
92	0xbec7761f	-0.38957307
93	0x3db7dc9a	0.08977623
94	0x3ea04e30	0.31309652
95	0x3deb6c8e	0.114953145
96	0xbdf84053	-0.12121644
97	0x3e49a917	0.19693409
98	0xbd949677	-0.072552614
99	0xbd957508	-0.072977126
100	0xbd3535c7	-0.04424074
101	0x3e09b269	0.13446964
102	0xbd8f0307	-0.06982999
103	0x3e519fe4	0.2047115
104	0xbe09742b	-0.13423221
105	0xbd8407b0	-0.06446779
106	0xbdbb8b26	-0.091574
107	0xbd657bdd	-0.05602633
108	0xbdea29b5	-0.11433736
109	0xbe6925a5	-0.22768266
110	0xbe09eb6d	-0.13468714
111	0xbda68f3f	-0.08132791
112	0xbdd14eb4	-0.102200896
113	0x3d98aa4c	0.074543566
114	0xbe037aef	-0.12839864
115	0x3e92f4b1	0.2870231
116	0x3e1eecee	0.15520069
117	0xbd589deb	-0.052884977
118	0x3e83a1f8	0.2570951
119	0x3e579b6e	0.21055385
120	0x3dfad3c4	0.12247422
121	0xbe8405a3	-0.2578555
122	0x3dade5fb	0.08491131
123	0xbe9a8c0d	-0.30184975
124	0xbe0912e6	-0.13386115
125	0xbd6958c7	-0.05696943
126	0x3d2d5186	0.042314075
127	0xbe513cb6	-0.20433316

conv2.lin.weight f4 [128, 128]
0	0xbe37ae3d	-0.1793756
1	0x3e3ac72d	0.18240042
2	0xbcc92b55	-0.024556795
3	0xbde0f531	-0.109842665
4	0xbe947e6c	-0.29002702
5	0xbc407879	-0.011747473
6	0xbcdd87e0	-0.02704233
7	0xbd3a2579	-0.045445893
8	0xbe3bbf5a	-0.18334714
9	0xbbcf317e	-0.0063230386
10	0x3b953aaa	0.0045541124
11	0x3d474226	0.04864707
12	0x3e10bf65	0.14135511
13	0x3e4cd7d0	0.20004201
14	0xbe106a6d	-0.14103098
15	0x3e317323	0.17329077
16	0x3c892175	0.016739586
17	0x3e824a81	0.25447467
18	0xbe4fd24d	-0.20295067
19	0x3e9a6c5c	0.30160797
20	0xbd3025dd	-0.04300486
21	0x3de6c7b8	0.11268562
22	0x3c9e5190	0.019326001
23	0xbe125616	-0.14290652
24	0xbdcf08bc	-0.10109088
25	0xbdbcc32a	-0.09216912
26	0xbdba1e6c	-0.09087834
27	0x3da886b3	0.08228817
28	0xbda7e53c	-0.0819802
29	0x3e16b263	0.14716487
30	0x3e967f79	0.2939413
31	0x3d1533a8	0.036426216
32	0xbd6c9814	-0.05776222
33	0xbe3559f7	-0.177101
34	0xbda83200	-0.08212662
35	0xbe2240df	-0.15845059
36	0xbdc6809c	-0.09692499
37	0x3d44e765	0.048072238
38	0xbe493ccb	-0.19652097
39	0xbcbf9b22	-0.023389403
40	0x3d1c5b51	0.038173024
41	0x3c81e2b3	0.015855169
42	0xbe1090c2	-0.1411772
43	0xbdca83f7	-0.098884515
44	0xbe22951d	-0.15877195
45	0x3d48318c	0.048875377
46	0x3dcf89eb	0.10133728
47	0xbd39edbc	-0.045392737
48	0x3e661e52	0.22472504
49	0xbd838322	-0.06421496
50	0x3d799c9f	0.06094038
51	0xbcdfc136	-0.02731381
52	0xbd2f6286	-0.04281857
53	0xbf078331	-0.5293456
54	0x3dd7f2d0	0.1054436
55	0x3e7116f0	0.23543906
56	0xbddac80d	-0.10682688
57	0x3d50df6b	0.050994318
58	0x3de887a9	0.11354
59	0x3e7ab008	0.24481213
60	0x3d29f7d9	0.04149613
61	0x3ce18034	0.027526952
62	0x3dbfbb89	0.09361941
63	0xbd1b6005	-0.03793337
64	0x3b896c31	0.0041938056
65	0x3e21609d	0.15759511
66	0xbe93ec9f	-0.28891465
67	0x3e0b527f	0.13605689
68	0x3eb33dae	0.35007995
69	0x3d81f737	0.063459806
70	0x3e2f2625	0.17104395
71	0xbe0c5c09	-0.13706984
72	0x3e9e827e	0.30958933
73	0x3e3a0144	0.18164545
74	0xbe575ac4	-0.21030718
75	0xbcfa5d68	-0.030562118
76	0xbe49465f	-0.1965575
77	0xbe17317c	-0.1476497
78	0x3e92423b	0.28566155
79	0xbbafea71	-0.0053685238
80	0xbdf2d2c0	-0.118566036
81	0x3e1f62c7	0.15565024
82	0x3bfc0506	0.0076910285
83	0xbe2c16b2	-0.16805533
84	0xbd76f0e5	-0.06028833
85	0xbdc7c88a	-0.09755047
86	0xbd08acf3	-0.033368062
87	0xbe5bd3e7	-0.21467553
88	0x3e0708ee	0.13187
89	0xbd8ba2bf	-0.06818151
90	0x3e06e09f	0.13171624
91	0xbea3e7fe	-0.32012933
92	0x3da336f4	0.07969466
93	0x3e1de82d	0.154206
94	0xbea0346f	-0.31290004
95	0x3e014058	0.12622201
96	0xbd2cde71	-0.042204324
97	0xbd203f14	-0.039122656
98	0xbd8e35bc	-0.06943843
99	0xbda87176	-0.08224766
100	0xbe151df2	-0.14562204
101	0xbde71375	-0.11283008
102	0xbed033e6	-0.40664595
103	0x3cde30c7	0.027122868
104	0x3daf6234	0.08563653
105	0xbe2ed599	-0.17073669
106	0x3e68b7db	0.22726385
107	0x3e7fb412	0.24971035
108	0xbd0ddc72	-0.03463406
109	0x3e85e783	0.26153192
110	0x3e211c91	0.15733553
111	0x3e8c9719	0.27459028
112	0xbd20afe9	-0.03923026
113	0xbbca5d84	-0.0061756987
114	0x3e550bd9	0.20805301
115	0x3ec79f43	0.38988695
116	0xbdc30b72	-0.095236674
117	0x3e565c1d	0.20933576
118	0xbd65fe22	-0.056150563
119	0x3df04544	0.11731961
120	0xbd20282e	-0.03910082
121	0xbe887d04	-0.2665788
122	0x3c80a075	0.015701512
123	0x3ee10c71	0.43954805
124	0x3d3cf0f9	0.046128247
125	0xbc927d7d	-0.017882103
126	0x3ce6db05	0.028180609
127	0x3e647c08	0.22312939
128	0x3e18a811	0.14907862
129	0xbda04d0a	-0.07827194
130	0x3d53619b	0.051606756
131	0xbd744ac2	-0.059641607
132	0x3e7a138e	0.24421522
133	0x3c08fd75	0.00836121
134	0xbd7bfa89	-0.061518226
135	0xbe38e26a	-0.1805512
136	0xbe67462e	-0.22585365
137	0x3e1c4948	0.1526233
138	0x3d5a33e0	0.053272128
139	0xbc9cc717	-0.019137902
140	0xbc27a3e4	-0.010231946
141	0xbdd1aa46	-0.10237555
142	0xbe48ec24	-0.1962133
143	0xbd8c20df	-0.06842207
144	0xbdda905e	-0.10672067
145	0xbde79ea7	-0.113095574
146	0x3df9a0c9	0.121888705
147	0x3d564d7f	0.05232
148	0xbaa4836e	-0.0012551376
149	0xbcbe988c	-0.0232661
150	0x3d4e1cf3	0.050320577
151	0x3e278866	0.16360626
152	0x3dc1362f	0.09434163
153	0x3d6cfa7a	0.05785606
154	0xbdcb2d69	-0.09920771
155	0xbd4856d3	-0.048910927
156	0xbe162ce0	-0.14665556
157	0xbe2dac37	-0.16960226
158	0xbe2221ee	-0.15833256
159	0xbe072131	-0.13196255
160	0x3e424317	0.18970905
161	0x3e52a47a	0.20570555
162	0xbe32a22d	-0.17444678
163	0xbd3754f2	-0.044758745
164	0x3d4ae68d	0.049536277
165	0x3e92d699	0.2867935
166	0x3eb57309	0.35439327
167	0x39e0acad	0.00042853263
168	0xbd8add5b	-0.067805015
169	0xbe0abf00	-0.13549423
170	0x3e1f4a92	0.1555579
171	0xbcd4f5a6	-0.02599604
172	0xbcba216e	-0.022721019
173	0xbd791197	-0.06080779
174	0x3e2498f7	0.16073976
175	0xbd8871dd	-0.06662343
176	0xbda59c50	-0.08086455
177	0xbe400c90	-0.18754792
178	0xbe8ab88a	-0.27093917
179	0x3e06e438	0.13172996
180	0xbe392acd	-0.18082733
181	0x3e453fe8	0.1926266
182	0x3dd9553c	0.1061196
183	0xbdbc2f7e	-0.09188746
184	0x3e34e94f	0.17667125
185	0x3d9bf99d	0.07615969
186	0x3d790586	0.060796283
187	0xbdc960c9	-0.098329134
188	0x3d4985dd	0.049199928
189	0x3d05206f	0.032501634
190	0x3e20fac4	0.1572066
191	0xbdb71c0b	-0.08940896
192	0x3e4c4631	0.19948651
193	0xbe63b29c	-0.22236103
194	0x3d0a9406	0.033832572
195	0x3e0fbc2c	0.14036626
196	0x3e89c70d	0.26909676
197	0xbdbfe274	-0.093693644
198	0x3d3ddb77	0.046351876
199	0xbda9d8fb	-0.08293339
200	0xbdd20a52	-0.10255875
201	0xbcfa3522	-0.030542914
202	0x3e4ed15d	0.20197053
203	0xbed9b8c7	-0.42523786
204	0x3cd6dbf9	0.026227938
205	0xbe0ba1a8	-0.13635886
206	0xbd464f3a	-0.0484154
207	0xbda1e362	-0.07904698
208	0x3a1adc7e	0.00059074897
209	0xbd78e209	-0.06076244
210	0x3dad5a93	0.08464541
211	0xbd519efd	-0.051177014
212	0xbdb45fc9	-0.08807332
213	0xbe53adf7	-0.20671831
214	0xbd0440ad	-0.032288242
215	0xbe02fce4	-0.12791783
216	0xbe5532c8	-0.20820153
217	0xbe273d61	-0.16332008
218	0x3d47cec6	0.04878118
219	0x3d1feeb0	0.03904599
220	0xbd8c8e55	-0.06863085
221	0xbd8762d4	-0.06610647
222	0x3ce64ae0	0.028111875
223	0x3cf9ba90	0.030484468
224	0xbd2fe8a9	-0.04294649
225	0xbd8b4d57	-0.06801861
226	0x3d89a8b5	0.067216314
227	0x3dfd5742	0.12370159
228	0x3cd8a0af	0.026443807
229	0x3e9fa35f	0.3117933
230	0x3dfa7a34	0.1223034
231	0xbd5778b3	-0.052605342
232	0x3dce1424	0.10062435
233	0x3cf30178	0.029663786
234	0x3dae0d3c	0.08498618
235	0x3e3534b4	0.17695886
236	0xbdd04310	-0.10169041
237	0xbd87e4c0	-0.066354275
238	0x3c89db3d	0.016828174
239	0xbd2df504	-0.042469993
240	0x3db60861	0.08888317
241	0xbbef1516	-0.007296215
242	0xbcc14c02	-0.023595814
243	0x3e02c615	0.12770875
244	0xbd983809	-0.07432563
245	0x3c9eceb3	0.019385671
246	0x3b74152c	0.0037244065
247	0x3d14163c	0.036154017
248	0x3e57dd31	0.21080472
249	0x3e5d5ef4	0.21618253
250	0x3ee1916e	0.44056267
251	0xbd459ce0	-0.04824531
252	0x3e199a99	0.1500038
253	0x3cbaf7dd	0.022823269
254	0xbda1c259	-0.07898397
255	0xbd028737	-0.031867232

conv3.bias f4 [2]
0	0x3f7be967	0.9840302
1	0xbf7be967	-0.9840302

conv3.lin.weight f4 [2, 128]
0	0x3dd6e6c6	0.10493235
1	0xbe88f60b	-0.26750216
2	0xbe822a2f	-0.2542281
3	0xbe6e5c6c	-0.23277444
4	0x3c8c1615	0.017100373
5	0x3f167b87	0.5878224
6	0xbe9baddf	-0.3040609
7	0x3ec8a210	0.39186144
8	0xbe9f88db	-0.311591
9	0x3f8822ac	1.0635581
10	0xbe8456ac	-0.25847375
11	0xbef55ef6	-0.47924012
12	0xbf0794d3	-0.5296146
13	0xbdfe9982	-0.12431623
14	0xbe818610	-0.25297594
15	0x3c2667b5	0.010156562
16	0xbe969829	-0.29412964
17	0x3eb37408	0.35049462
18	0xbe7c4d72	-0.24638918
19	0xbede917b	-0.43470368
20	0x3f864b74	1.0491776
21	0x3e74cb49	0.23905672
22	0xbeb9b565	-0.36271206
23	0x3f4401c2	0.7656518
24	0xbe17657a	-0.14784804
25	0x3e72385a	0.23654309
26	0xbe8e44a8	-0.27786756
27	0x3f9f53dd	1.2447468
28	0xbed9d850	-0.42547846
29	0x3e09563e	0.13411805
30	0xbe2eb082	-0.1705952
31	0xbdcbbe80	-0.09948444
32	0xbdb86c80	-0.0900507
33	0x3eb7f462	0.35928637
34	0xbebf1961	-0.3732405
35	0x3f044c29	0.5167871
36	0x3ebffb46	0.37496394
37	0x3e9e4f35	0.30919805
38	0xbe4fb492	-0.20283726
39	0x3f562305	0.83647186
40	0xbee7f026	-0.45300406
41	0xbf152ee6	-0.58274686
42	0x3e509be5	0.20371969
43	0x3eda6bf2	0.4266048
44	0x3f2736e4	0.6531813
45	0xbe8336c3	-0.25627717
46	0x3e533e05	0.20629127
47	0x3e49b270	0.19696975
48	0xbe80a6fb	-0.25127396
49	0xbe9f63e0	-0.31130886
50	0xbe29c6e8	-0.16579783
51	0x3f6039fb	0.8758847
52	0x3eae275a	0.34014398
53	0x3e86d8e9	0.26337364
54	0xbebebc49	-0.37253025
55	0xbf288e6a	-0.65842307
56	0x3ebfdb56	0.37472028
57	0x3eb336c2	0.35002714
58	0x3f153c65	0.5829528
59	0x3f01a4e3	0.5064222
60	0xbe542645	-0.20717724
61	0x3e812bed	0.25228825
62	0xbeab5533	-0.3346344
63	0xbf4fc436	-0.8115877
64	0xbe3a3f3e	-0.18188187
65	0x3ee4acb0	0.44663
66	0x3f070a19	0.5274978
67	0x3f0c3376	0.54766023
68	0xbe89ae5b	-0.26890835
69	0xbde8c88c	-0.11366376
70	0xbec6a0ee	-0.38794655
71	0x3bb79791	0.005602785
72	0xbe347499	-0.17622603
73	0x3ea58ac9	0.32332447
74	0x3d3e3e05	0.046445865
75	0xbd36495a	-0.044503547
76	0xbefd55f0	-0.49479628
77	0x3efe6207	0.49684164
78	0xbf24d216	-0.64383066
79	0xbd2e9d23	-0.042630326
80	0x3e4308de	0.19046351
81	0x3e8ec85e	0.27887243
82	0xbe5991af	-0.2124698
83	0x3eb57957	0.35444137
84	0x3eaf30cb	0.34216914
85	0xbeeb08b9	-0.45905092
86	0xbecdbea7	-0.4018452
87	0xbec67bd6	-0.38766354
88	0xbf048dab	-0.5177867
89	0xbf1f1046	-0.62134206
90	0x3e3e6c34	0.18595964
91	0x3f177064	0.5915587
92	0xbed9149a	-0.4239853
93	0x3dd7bf1b	0.10534497
94	0x3f1114cf	0.56672376
95	0x3ec1b90a	0.37836486
96	0xbe7a3d52	-0.24437454
97	0x3f44601e	0.76709163
98	0xbe4b8ebb	-0.19878666
99	0xbeaaea53	-0.333819
100	0xbdf8154c	-0.12113437
101	0x3e126002	0.14294437
102	0xbed1e36e	-0.40993828
103	0x3e5ec452	0.21754578
104	0xbdee0db5	-0.11623708
105	0xbe8aa477	-0.27078602
106	0xbe6572d4	-0.22407085
107	0xbe870816	-0.26373357
108	0xbedeac47	-0.43490812
109	0xbef62e9a	-0.4808243
110	0xbf03e7cd	-0.51525575
111	0xbe86650f	-0.26248977
112	0xbe90ddae	-0.28294128
113	0x3ea1cf9a	0.316037
114	0xbee34257	-0.4438655
115	0x3f1e7bea	0.6190783
116	0x3e372440	0.17884922
117	0xbeb13b68	-0.34615636
118	0x3ea8a9dc	0.32942092
119	0x3f48e83f	0.7847938
120	0x3f28ee40	0.6598854
121	0xbe8d4d9b	-0.2759827
122	0x3ede9a37	0.43477032
123	0xbf1da2bf	-0.61576456
124	0xbee30bb9	-0.4434488
125	0xbeacbca5	-0.33737674
126	0x3d2e018d	0.042481948
127	0xbf2903b2	-0.66021264
128	0xbe9b4f42	-0.30333906
129	0x3e549510	0.20759988
130	0x3ed36401	0.41287234
131	0x3e5f3ba1	0.2180009
132	0xbe8a94f5	-0.2706677
133	0xbedf01ba	-0.43556005
134	0x3ebb7d4d	0.36619034
135	0xbe4f6380	-0.202528
136	0x3e4f7c37	0.20262228
137	0xbf7a222a	-0.9770838
138	0x3e5180bc	0.20459265
139	0x3f33d843	0.70251864
140	0x3f1ff4d6	0.62482965
141	0x3e21b62c	0.1579215
142	0x3e5c060d	0.21486683
143	0x3e36c01e	0.17846724
144	0x3ed8bb15	0.42330232
145	0xbc88d298	-0.016701981
146	0x3eaaccf8	0.33359504
147	0x3e9fdff4	0.3122555
148	0xbf501066	-0.8127502
149	0xbe86663a	-0.26249868
150	0x3e5e19bd	0.21689506
151	0xbf501d49	-0.81294686
152	0x3e921452	0.28531128
153	0xbc15df52	-0.009147482
154	0x3e94756f	0.28995845
155	0xbf6eb993	-0.93251914
156	0x3dca1aa0	0.098683596
157	0x3db5dd51	0.088801034
158	0x3e8997ea	0.26873714
159	0x3d98c00a	0.074585035
160	0xbccda494	-0.025102891
161	0xbebb37cb	-0.36566004
162	0x3ec9a83f	0.39386174
163	0xbf09fdd9	-0.53902966
164	0xbedb0d75	-0.42783704
165	0xbef22a57	-0.47297928
166	0x3e51af6f	0.20477079
167	0xbee745df	-0.45170495
168	0x3e9a42d3	0.30129108
169	0x3f6d5c32	0.92718804
170	0xbea727ce	-0.32647556
171	0xbe08e7ba	-0.13369647
172	0xbf3cc752	-0.7374164
173	0x3ec321cf	0.3811173
174	0xbeb79f8e	-0.35863918
175	0xbe36f4e3	-0.17866854
176	0x3ec353cd	0.38149872
177	0x3da987a0	0.082778215
178	0x3e71b388	0.23603642
179	0xbf025193	-0.5090572
180	0xbeafd502	-0.343422
181	0xbe61e424	-0.22059685
182	0x3e568149	0.20947756
183	0x3f2f83b3	0.6856033
184	0xbec26b26	-0.37972373
185	0xbe8299b1	-0.25507882
186	0xbf256a81	-0.6461564
187	0xbecc12ee	-0.39858192
188	0x3e920fa4	0.28527558
189	0xbf01a307	-0.50639385
190	0x3e7bd034	0.24591142
191	0x3eebd667	0.46062014
192	0x3e964a2e	0.2935347
193	0xbe575885	-0.21029861
194	0xbeadbb0f	-0.33931777
195	0xbf4a41bd	-0.7900656
196	0x3dec3b9f	0.11534809
197	0x3e9aaff5	0.3021237
198	0x3e17ad5b	0.14812224
199	0xbe2510b8	-0.16119659
200	0x3e85697a	0.26057035
201	0xbe9929d3	-0.29914722
202	0x3dec8268	0.115483105
203	0x3e49296d	0.19644709
204	0x3e2deeb1	0.16985585
205	0xbe85801e	-0.26074308
206	0x3ea485b1	0.32133248
207	0xbe8e7287	-0.27821752
208	0xbe0f1198	-0.13971555
209	0xbee34d4f	-0.4439492
210	0x3ea69354	0.32534277
211	0xbe94a86b	-0.29034743
212	0xbe94f502	-0.29093176
213	0x3ee72cd9	0.45151404
214	0x3eae489e	0.34039778
215	0x3ebcb157	0.3685405
216	0x3f1c0715	0.60948306
217	0x3ef92e76	0.4866826
218	0xbec2542a	-0.37954837
219	0xbf138990	-0.5763178
220	0x3e926160	0.28589916
221	0xbe9b863b	-0.30375847
222	0xbf20dd58	-0.62837744
223	0xbedd6fa7	-0.43249246
224	0x3ea110a6	0.31458014
225	0xbf0fff78	-0.5624919
226	0x3ec0bb9e	0.3764314
227	0x3eee2c0c	0.4651798
228	0x3d6e517d	0.058183182
229	0xbeaa8d61	-0.3331099
230	0x3e8c02d6	0.27345914
231	0xbe30a327	-0.17249738
232	0x3e8fd785	0.28094116
233	0x3eaeb250	0.34120417
234	0x3d0faea1	0.03507865
235	0x3dbe8897	0.09303396
236	0x3e586a39	0.2113427
237	0x3eb276d9	0.348563
238	0x3f171bd8	0.5902686
239	0x3e820324	0.2539302
240	0x3eb1a7c3	0.34698305
241	0xbe8e96fa	-0.2784956
242	0x3ecadb75	0.39620557
243	0xbed27abd	-0.41109267
244	0xbea8a18e	-0.32935756
245	0x3e88cf29	0.2672055
246	0xbe8e8896	-0.27838582
247	0xbf298949	-0.66225106
248	0xbf051b25	-0.51994544
249	0x3f23e516	0.6402143
250	0xbee21a5c	-0.44160736
251	0x3f2a4137	0.6650576
252	0x3e95a46c	0.29227006
253	0x3eaf41d5	0.34229913
254	0xbd7e9dad	-0.06216209
255	0x3f337cc8	0.70112276
