RL_MIM/model.pth (torch, 95239 bytes, 6 tensors)

conv1.bias f4 [128]
00000000: bdae 823c 724c 853c 8eb8 9cbb 1912 66bd
00000010: fe40 aebc 345f c8bc 3a45 103d e888 0abd
00000020: a1cc 1cbd 94d6 03bc 0849 e5bc 8b56 25bd
00000030: 5008 623c 63ff bdbc 79e6 03bd c580 c3bc
00000040: 0208 923c 8f66 0e3c da65 143d 34cc 64bc
00000050: 84a7 2e3d 8fcd 16bd 0641 273d d7c4 febc
00000060: 600b 263d 8de4 4d3d aa6d 003d 74db 0d3d
00000070: 8455 58bd 8553 dabb efbe aebc f945 3c3d
00000080: 64df 1cbd fa2e 843c 8bae e53b 48cc 983c
00000090: 0a9c a43d 18d0 d63b c737 553d 5b32 e93a
000000a0: 6b4a 1b3d 0831 263d f3f4 34bc c6c5 633d
000000b0: e98a dcbc 0528 b2bd b885 0bbc 300a 123d
000000c0: 5bfa af3b a268 55ba 0583 833c 22de 28bc
000000d0: ed59 9abb 9d43 fdbc 24d0 f63b 76b6 70bb
000000e0: 10de 913d 2368 583b a576 a2bc 7e74 a83d
000000f0: 3df8 ec3c c108 09bc 7463 3b3d 36e2 e53c
00000100: 796a 95bd 349b 4e3c 8b15 1cbd eb62 d2bd
00000110: f95f fd3c 2365 043c 4ac8 043d 2aa6 a83c
00000120: ea8a b7bc 46a0 633d 86d0 ca3c d759 093d
00000130: 2efd b43c 9c6d d4bc 42ad 043d 8db6 223d
00000140: fc79 28bd 60f3 a43b bb91 09bd 77c8 b63d
00000150: 44c5 b2bc a3d5 febc 3fda 60bc 3938 b5bc
00000160: 2079 123d 3345 983c b587 5c3d d7b4 29bd
00000170: 0f88 a53c 2741 063d 34f7 c13d 1f6c f23c
00000180: 6239 9e3c 91fa ac3c c632 00bd ec7d 9a3b
00000190: 0b08 713d bee5 80bc b508 563d 3e0e 13bc
000001a0: c7ae 89bc cb20 47bd 7b85 f73c 7762 983d
000001b0: f5ad 073d 3ee4 833d 3b67 9dbd 8a2f 523c
000001c0: fee2 073b 00d1 17bc b3da 20bd 0f91 1e3c
000001d0: 7547 a3bc 8690 ef3b 3b7d d7bd c9d3 b73c
000001e0: 35f9 a8bc cab4 293d b5f1 29be 1e05 ca3c
000001f0: b435 22bd 3f66 d4bc 5832 813c 79e8 0fbd
0.015952462 0.016271804 -0.004782743 -0.056169603 -0.021271225 -0.024459459 0.03522227 -0.03382197
-0.038281087 -0.008046765 -0.027988926 -0.040365737 0.013795927 -0.023193067 -0.032202218 -0.023865113
0.017826084 0.008691444 0.036229946 -0.013964701 0.042640224 -0.03681713 0.040833496 -0.03109972
0.04053819 0.05026679 0.031354584 0.034633115 -0.05281593 -0.0066627883 -0.021331279 0.04596517
-0.03829898 0.016135681 0.0070093325 0.018652096 0.080375746 0.0065555684 0.052055147 0.0017791496
0.037912767 0.040574104 -0.011044729 0.055608533 -0.026921706 -0.08699039 -0.008515768 0.035654247
0.005370421 -0.00081408967 0.016053686 -0.010306867 -0.004710427 -0.03091603 0.0075321365 -0.003672985
0.07122433 0.0033021055 -0.019831965 0.08225344 0.028926963 -0.0083639035 0.045749143 0.028061967
-0.07295699 0.0126102455 -0.038106482 -0.10272773 0.030929552 0.0080807535 0.032417573 0.020587046
-0.022405107 0.05557277 0.024757635 0.033532944 0.022093382 -0.025931172 0.032391794 0.039724875
-0.04113196 0.0050338954 -0.033586245 0.089249544 -0.02182258 -0.03110773 -0.013723909 -0.022121536
0.035760045 0.018587684 0.053840358 -0.041432228 0.02020648 0.032776978 0.094709784 0.029592572
0.019314472 0.021115573 -0.03129842 0.004714718 0.05884556 -0.01573455 0.052254397 -0.008975564
-0.016806973 -0.04861526 0.030215016 0.07440656 0.033124883 0.06440018 -0.07685705 0.012828717
0.0020734663 -0.009266138 -0.039271068 0.009678139 -0.019931534 0.0073109297 -0.10521933 0.022439854
-0.020626644 0.04143218 -0.1659611 0.024660643 -0.039601997 -0.025927661 0.015771076 -0.035133813

conv1.lin.weight f4 [128, 50]
00000000: 7ad7 d33c 1d91 1bbe 7dc5 683d e6e5 d53d
00000010: 5813 eabd 0ce1 dfbd 462a 75be fbec cdbd
00000020: 0f52 5dbd 49ec 1bbe 50ed af3d f945 5a3d
00000030: 7dd7 f6be 3ebe 9e3d 6d31 23be 6a8e 4cbe
00000040: c93f 823d 388f 5bbd 5d4f 2ebd c7fd e9bd
00000050: 2078 cbbd a081 eabe 5cf0 083e db8f 55bd
00000060: b710 3a3e 7dbc 97be 51da 94bc f787 273c
00000070: 46e4 d93d 1881 d83d fe54 47bd a645 883e
00000080: 97ab 5fbd 4000 983e d806 bf3d 4129 333e
00000090: fa17 8c3e bbce 04be 501c a1bd 95c1 ffbb
000000a0: 0fd0 68bc 657e 123e 5a59 3f3c a597 c1bd
000000b0: 6ab1 9b3e 05cf c2bd 6a35 a9be 56c4 803e
000000c0: 540c b3be 2ab9 bfbd 143e d53c 9f43 353e
000000d0: 045f f23d 3332 23bd 42ab c43d 8182 1ebe
000000e0: 0699 8ebe 7c03 363a d4e5 1e3e 46ce 3d3e
000000f0: 7952 4a3e c2e2 a3bd 6b5d 56be 20e7 fbbd
00000100: f850 bfbe 5c80 693e c567 5d3b 19ec 9fbe
00000110: eaf0 a83e 99fc eb3d 80af b3be 8997 5fbe
00000120: e543 713e 304e 1abe 1aed f7bd b4f8 95be
00000130: e37c 01be 742d 163d 1838 12be 6dfc a2bd
00000140: f036 3abe ad6b c93e c0ba 973e 1864 ebbd
00000150: a5a5 6d3e afcf 8abe 8bbf 793d 191b a4be
00000160: e001 90be 3f75 c33d 5e45 b03e 375e f03b
00000170: 2d02 44be 2b62 0fbf cd6d d83c 5f40 23be
00000180: e9e8 a739 764d 033f 97cb bcbe bb5a c53d
00000190: 9d92 e2bd 86be 073d 9732 ab3e 184d 62be
000001a0: c672 783e 7a31 603c 3cc3 d23d fc2e 48be
000001b0: 33db f23c 1588 3dbe 7124 673e 96ef 79be
000001c0: ecce 2cbe dfc8 2e3e c5d5 2a3e a33c c3bd
000001d0: 00c4 fdbe f0dc 06be 92f4 e9bd 3701 8b3c
000001e0: 868a 65bb 69db 35be 8ca5 c9bd 0aaf 39be
000001f0: b0d6 3bbd 2559 fbbd 2f01 b7bd 05e1 ccbd
00000200: 248d 143d d794 2dbd a5af 40be c592 11bf
00000210: 57ef d3be 74e1 e93e ed24 01be cfc6 24be
00000220: b5ab a7bd 464a c63d 3060 c43d 8134 81be
00000230: bdd2 1e3e 9f55 7f3e e3d4 c33d b759 c9bd
00000240: 006d b1bd 2d79 993e 46db 2b3e b9d9 483e
00000250: d00d d13e 27ef 073e c3be 4ebd a8bc 52be
00000260: 07d2 ac3d 9137 41be a3c6 2d3e cb67 7b3e
00000270: 30e3 d43e 60e7 10be 120c bd3d 3cb6 87bd
00000280: 7464 843e 4b7a 943c ff55 2abe 5dac 293e
00000290: 9d09 753e e67e d73d ef05 8c3d 5a95 e1bd
000002a0: f7c1 29bc d617 0ebd 57cd 7cbc e2e3 f6be
000002b0: 3eae dcbd eacd db3d 3b8f 723e ec99 60be
000002c0: 3d6f 083e 6783 95bd aab3 353d 471c 893d
000002d0: 8169 42be 2204 06be 513d 94bd b63d d0bd
000002e0: fed1 37be aeac bdbc 31ce 4bbd ce42 2f3e
000002f0: 5007 993e c3dd 47bd 0278 2fbd b43c 853d
00000300: 8332 b7be f631 103d e9c5 033d a311 773e
00000310: f8af 5d3e 2bce 443e fd23 003e e0eb 78bc
00000320: 54c6 31be b8c8 6abd 74cc 7dbc 9c64 38be
00000330: 63e1 0abe c35f 53be d33c 9dbe b123 883d
00000340: 7e73 babe 5c1e 973d 25e8 26bd a12f 1c3e
00000350: 5d7a 16bd 3149 ae3d e714 64be 652e 4f3d
00000360: 743e eebc 196e 9d3d f3d8 223e 3af1 a2bd
00000370: b832 a2bd 41bb 943d 30c8 60bd 4ab5 a63c
00000380: b880 453e 3100 ea3d fae4 f9bd ce05 7fbe
00000390: ea46 8f3c 960c 003e c75a 1fbd 6df4 7fbd
000003a0: 580f 0b3e 1f87 843d 9a9b 60bd 5640 f6bd
000003b0: ea2e bebe 8e90 8d3d 4015 1d3e 370a 8ebc
000003c0: 92fe 0a3e 8ee1 37bd 432e 623e d63f f83d
000003d0: 0b27 a6be b796 80bd 906f 053e 2a7b 3e3c
000003e0: 15fc 8e3d 5957 1e3e abc3 ab3e 3dde 87be
000003f0: 1ebf 483d 752d 2cbe aff4 2bbd 961c 1ebe
0.025859583 -0.15192075 0.056828965 0.1044424 -0.11429471 -0.10931596 -0.23941907 -0.10054966
-0.054033335 -0.15226854 0.08590186 0.053289387 -0.4821128 0.077511296 -0.15936823 -0.19976202
0.06359822 -0.05360338 -0.042556155 -0.11425357 -0.099350214 -0.4580202 0.1337294 -0.052139144
0.18170439 -0.29635993 -0.018170508 0.010225288 0.10639243 0.10571498 -0.04866504 0.26615638
-0.054607 0.2968769 0.09327477 0.17496206 0.27362043 -0.12969486 -0.07866728 -0.007805059
-0.014209761 0.14306028 0.011679018 -0.09452752 0.30408794 -0.09512142 -0.33048564 0.25149792
-0.34970343 -0.09361489 0.026030578 0.17701577 0.11834529 -0.039842796 0.09602977 -0.15479471
-0.27851123 0.0006943268 0.1551736 0.18535718 0.19758023 -0.08002235 -0.20934074 -0.12299943
-0.37366462 0.22802871 0.0033783775 -0.31234816 0.32996303 0.115227886 -0.35094833 -0.2183515
0.23561056 -0.15068889 -0.121057704 -0.29291308 -0.12645297 0.03666444 -0.1427921 -0.07958303
-0.1818502 0.39339963 0.29634666 -0.11493701 0.2320772 -0.27111575 0.060973685 -0.32051924
-0.2812643 0.09543847 0.34427923 0.00733545 -0.19141455 -0.5600917 0.026419545 -0.15942524
0.00032026254 0.5129007 -0.36874077 0.09636446 -0.110631205 0.03314068 0.33437034 -0.22099721
0.24262533 0.013683671 0.10291144 -0.19549173 0.029645538 -0.18508942 0.22572495 -0.24407801
-0.1687581 0.17068814 0.16683109 -0.0953305 -0.495636 -0.13170218 -0.11423601 0.016968353
-0.0035025193 -0.1775948 -0.09846029 -0.18133178 -0.04585904 -0.12272862 -0.08935773 -0.100038566
0.036267415 -0.042378273 -0.18817003 -0.5686458 -0.4139354 0.4567982 -0.12611742 -0.16091464
-0.081870474 0.09682135 0.09588659 -0.2523537 0.15510078 0.24935006 0.09562089 -0.09831565
-0.08663368 0.29975262 0.16782865 0.19614305 0.4083085 0.13274823 -0.050474893 -0.20579779
0.08438497 -0.18868853 0.16970305 0.24551313 0.4157958 -0.14150763 0.09230818 -0.06626555
0.2585789 0.01812472 -0.16634367 0.16569658 0.23929448 0.10522251 0.06837069 -0.11014815
-0.010361186 -0.0346907 -0.015429816 -0.48220736 -0.107754216 0.10732634 0.2368745 -0.21933717
0.13323684 -0.07300454 0.044360794 0.066948466 -0.18985559 -0.13087514 -0.07238258 -0.101680204
-0.179512 -0.02315363 -0.049757186 0.17115328 0.29888391 -0.048795473 -0.042839058 0.06505719
-0.35780725 0.035203896 0.032171164 0.24127822 0.21649158 0.19219272 0.12513728 -0.015192956
-0.17360812 -0.057320327 -0.01549064 -0.1800713 -0.1356254 -0.20641999 -0.30710468 0.066474326
-0.3641624 0.073788375 -0.040748734 0.15252544 -0.03673779 0.08510054 -0.22273599 0.050581355
-0.029082514 0.07687015 0.15903072 -0.079561666 -0.0791983 0.07262278 -0.054878414 0.020350117
0.19287384 0.11425818 -0.12201877 -0.24904558 0.01748987 0.12504801 -0.03890493 -0.062488962
0.13580072 0.06471085 -0.054835893 -0.1202399 -0.37145168 0.06912337 0.15340137 -0.017338855
0.13573673 -0.04489284 0.2208796 0.12121551 -0.32451662 -0.062787466 0.13030839 0.011626044
0.069816746 0.15463008 0.3354772 -0.26536742 0.04901039 -0.16814215 -0.041981395 -0.15440592

conv2.bias f4 [128]
00000000: cc95 7e3c 8dad 933c ae76 8fbb 3f5a 073c
00000010: 337b 14bd 9de0 28bc 7b83 40bc c892 eabb
00000020: bc92 cd3b 7e3a e23c 57c6 853d 4ef6 dbbb
00000030: f2da 3b3c c949 ff3b 486f bb3d 9569 bc3b
00000040: 4873 013c 60b1 2fbe 8411 afba f19c 313e
00000050: 7a1d aa3c 7cca 39bc 78b1 e93c 984b 1abc
00000060: c8c0 923c 97eb 8e3d 0088 92be eedf 19bd
00000070: 2cf8 9f3c 3d80 12bc eefc 71bc a545 3bbc
00000080: 20dd 6ebb 769a 8d3c 8360 7d3c 7d30 903b
00000090: ea06 793c 5d1b cabc dbfb e5bb b608 893d
000000a0: 7147 a63c e1c3 35bc b9b5 833d 0528 b73b
000000b0: cd07 f9bb 5052 44bc 5272 04bd b06d 043d
000000c0: bc5c bcbc 9b60 2cbb 46af 073c 3e8a 7d3c
000000d0: 7b0e bd3b 1012 a23c f442 80bc 5c00 e3bc
000000e0: 7a62 383e 224e 80bd 1ec3 f33b 9d93 ffbb
000000f0: 0039 9f3d 8a24 913c f6ab 9e3c ee9f d33b
00000100: be20 053d 9668 5b3c 83cc 8639 5240 d73b
00000110: fa8b a93c 6598 c4bd 96e4 d7bb 5393 de3b
00000120: ec25 233c 4ec9 b9bb 4b7a 3c3c aa5c a3bc
00000130: 7d9d baba aee7 c0bd ca90 eabb beb4 23bc
00000140: d136 003d 9a80 043b 6777 5bbc 622b 6f3d
00000150: ecf8 bcbb ad82 e4bc af64 773c 15e0 80ba
00000160: edd8 03bd cafa 59bc ff3c b1bb 387b 243e
00000170: fac1 e53c edc1 013d 05a2 373d fa7f 8d3d
00000180: 41fc 91bc 6725 84bc da0a 84bd 2f3b f93d
00000190: ec75 4e3d c768 5e3d f9a1 ccbb ae7e debb
000001a0: d0bd 2d3e 35df 733c 5a04 053c f980 a93b
000001b0: c40e 963c 3857 843c af5f bdbb 6041 d5b7
000001c0: a16b b93d 86a7 0e38 752e 98bb 54c3 4bbb
000001d0: b010 3e3c d746 56bb feef da3b a23a f0bb
000001e0: 11e9 cb3b e23a 9dba e3e9 a53c f972 84bb
000001f0: 0849 603a a80a bb3b 4faa 25bd b960 273c
0.015538644 0.018027091 -0.0043781614 0.008261262 -0.036250304 -0.010307458 -0.011750097 -0.007158611
0.0062735956 0.027615782 0.06531971 -0.0067127114 0.011465775 0.0077907783 0.091520846 0.005749891
0.00790102 -0.17157507 -0.001335666 0.17345025 0.020766009 -0.01133978 0.028527007 -0.009417437
0.01791419 0.06978529 -0.28619385 -0.03756707 0.019527517 -0.008941707 -0.014769776 -0.011430179
-0.0036447719 0.017285567 0.015464905 0.0044003115 0.015199402 -0.024671251 -0.007018549 0.066911146
0.020297738 -0.011094064 0.06431145 0.0055894875 -0.007599807 -0.011982515 -0.032335587 0.03233117
-0.022993438 -0.0026302699 0.008281535 0.015474854 0.0057695485 0.019784003 -0.015656926 -0.027710132
0.18006316 -0.06264903 0.0074390313 -0.0077995793 0.07774544 0.017717618 0.019369107 0.006458274
0.03250193 0.013391634 0.00025710845 0.006568947 0.020696629 -0.095993795 -0.006588529 0.0067924648
0.009957772 -0.0056697493 0.011503766 -0.019941647 -0.0014237609 -0.094191894 -0.0071583735 -0.009991823
0.031302277 0.0020218254 -0.013395167 0.058390982 -0.0057669785 -0.027894342 0.015099688 -0.0009832407
-0.0321893 -0.013304422 -0.0054088826 0.16062629 0.028046597 0.031679083 0.04483225 0.06909175
-0.01782048 -0.016131116 -0.06447382 0.121694915 0.050405428 0.054299142 -0.0062448946 -0.0067900037
0.16966939 0.01488476 0.008118713 0.0051728454 0.018317588 0.01615487 -0.0057792286 -2.5422021e-05
0.09053732 3.4011457e-05 -0.00464421 -0.0031091766 0.011600658 -0.0032696032 0.0066814413 -0.0073312083
0.006222852 -0.0011995698 0.020253127 -0.004042026 0.00085558044 0.0057080574 -0.040445622 0.010215932

conv2.lin.weight f4 [128, 128]
00000000: db6c a3bd 399a 5ebd 9643 8bbd 358d 60bd
00000010: f1f4 273e 4cb6 bebd 72a9 953d a25f a7bc
00000020: 783c ffbd 54c3 dc3d 7211 673d 3e2e 33be
00000030: d568 d1bd 794c 44be d73b 10be e8b8 23be
00000040: 57c5 243d af94 3ebe ff69 86bd b625 16be
00000050: 723d b53b a828 2f3e 9053 dc3e feac 98bd
00000060: ec88 b4bd d5b6 263e 1cc9 08be b8e9 c7bc
00000070: ad9b 63be 0734 65bd 97a5 ffbc 69c5 52bd
00000080: ea75 9cbd feb2 d13d 0e36 be3c 26ba 1ebd
00000090: 3cc5 343e cff7 033e 9578 5b3e d921 cf3d
000000a0: a0ba fb3d 64eb 863e 9c2a ad3a b9ca d6bd
000000b0: 0060 60be b854 133e f2c6 00be 4baa ad3c
000000c0: 1921 a2bd f823 10be 39eb e93d e26a 12be
000000d0: eadd 96bc f433 e13c 170d d6bd 9fb4 3fbe
000000e0: 3f86 bd3d 3029 013e ef4a 4dbe a274 bbbc
000000f0: c31d b33d e694 0c3d 7ca6 50be 224e adbd
00000100: 6ed1 c1be b2a9 13be 1ccf 0bbe fc13 a93c
00000110: ca47 e1bd 1623 22be 7935 f5bc 88a1 223e
00000120: 5b5e 80be 691e 033e d6ad 88bd 877b fdbd
00000130: 31f2 723e 1103 d63d b863 bdbd 5931 72bd
00000140: 69db 2fbe dd48 083d 65ec d43c cbd7 7dbd
00000150: d5fa 1dbb 17dd 0b3d 2023 0cbc 3cd9 d6bd
00000160: 54e8 213e ec68 873d 928e 053e 7f19 08be
00000170: e464 8a3d 5f81 ac3d ebb7 42bd 8cf4 1bbe
00000180: 9da9 df3c b0f0 e83d 5d4a d4bd b787 b7be
00000190: 4122 4d3e 3446 d23d e1bb d9bd 5f22 21be
000001a0: 880f 92bd 29b7 39be 1186 0fbd c5a0 9b3d
000001b0: 7528 163c a086 bd3d d7fc 5dbe 7c99 cfbd
000001c0: be65 453e fbd9 b33d ba21 45be 800a 3ebe
000001d0: 0368 593d a6a0 063e 4d92 00be 555c f33d
000001e0: 83ee 693d b57b 49bd 4883 3a3e 3d7b 57bc
000001f0: 77ff 66be 4b3b 803d 161a 733d 8626 17be
00000200: 1039 aabd a54b 8b3e 6065 06be de75 31be
00000210: 6954 9cbb 6cf2 9f3d a193 45bc f342 06bd
00000220: 2ee2 10be ca51 e1bd b708 5fbd e93f 1cbe
00000230: 0585 0ebd fb4a 17be 1012 2c3d 9439 483d
00000240: 413a a9bd 2519 703b dbfc fe3c 3c49 783d
00000250: f577 25be c100 44be 91c8 1fbd 3f5d 21be
00000260: 03dc a2bd e033 79bd d24f 33be 5c09 03be
00000270: 2431 9a3e a871 c0bd 52bd 75bd 7529 673d
00000280: 862d 2c3d 1df8 0a3e 6e6e 34be 5695 4f3d
00000290: e84a 2e3d ca00 463e 3efe a63d e0d2 b138
000002a0: 9ad2 bdbb 2690 15be cba4 55bb 431c b63d
000002b0: 9efa 5fbe 89c4 4a3d 7da0 143e bc1b 88bd
000002c0: aaef 18be 43b6 963e a21d 6cbe bc16 0b3d
000002d0: b320 8dbd f7e4 56bc 7814 273d 6c2e 9f3d
000002e0: ffb1 f53d f11d b1bd 3dde 393d 89e5 f33d
000002f0: 7684 d13d 28eb 0fbd f5e3 12be 1b1a 8b3d
00000300: de31 2cbe 0c6e a9bd 2806 a63d e5a6 813c
00000310: 3aff cd3c 96f1 16be a80b 08be 47ea a6bb
00000320: 560d e53d e8c0 a33d 691a 803e 73ff e9bd
00000330: 3f37 debd 4e7d 0dbe 3454 b93a 6407 28be
00000340: 34fd 993d 5687 5f3d 6063 123e be4f efbc
00000350: 7849 0b3e 0140 953d 949f 783d ee17 a73e
00000360: 37ac 083c 0070 8abd d98e ba3d bb59 433d
00000370: 07d5 893e f0e3 24be 75d7 b13d 723e 783d
00000380: 74d1 783c 68d9 7f3e 1b8e a5bd 2085 573d
00000390: 3e7f 5ebe c331 97bb 7e08 48bb d865 b03d
000003a0: ba9d 243d 0ae5 aabc e5c1 cd3d e8b0 30be
000003b0: 13ba 1c3c 78be fcba 34f1 363e 6364 403e
000003c0: 69dd 69be 6d16 133e f619 b83d 82e6 a53e
000003d0: b695 e73d 0d3f 8cbd 3d1b 593d 3c1d bbbd
000003e0: 936c 15be c066 36be 8291 68be daf2 c23d
000003f0: 42b0 0a3d 0156 453d 1d20 423e b681 943d
-0.07979747 -0.054346297 -0.068 -0.054822166 0.16402031 -0.09312114 0.0730771 -0.020431343
-0.124627054 0.107794434 0.05641312 -0.17498109 -0.10225073 -0.19169797 -0.14085327 -0.15988505
0.04022726 -0.18611406 -0.06563186 -0.14662823 0.0055310065 0.17105353 0.43032503 -0.07454871
-0.08815178 0.16280682 -0.13357967 -0.024403438 -0.22227354 -0.05595782 -0.03120689 -0.051457796
-0.07639678 0.10239218 0.023219135 -0.038751744 0.17653364 0.128875 0.21432717 0.10113878
0.12291455 0.26351464 0.0013211551 -0.10487885 -0.21911621 0.14387786 -0.12575892 0.021199366
-0.07916469 -0.14076221 0.11421818 -0.14298585 -0.018416364 0.027490593 -0.104517154 -0.18721245
0.09254121 0.12613368 -0.20048116 -0.022882763 0.08745911 0.034321688 -0.20376009 -0.08462168
-0.37855095 -0.14420202 -0.13653225 0.020639412 -0.11000021 -0.15833697 -0.029932724 0.15881932
-0.25071988 0.1280457 -0.066737816 -0.123770766 0.23725201 0.104498036 -0.092475355 -0.059129093
-0.17173542 0.033272613 0.025991628 -0.061973374 -0.0024105806 0.034146395 -0.008553296 -0.10490653
0.15811282 0.06611809 0.13042668 -0.13290976 0.067575246 0.08423113 -0.04753868 -0.15230006
0.027302558 0.113740325 -0.10365746 -0.3584573 0.20032598 0.102672964 -0.10631538 -0.15735768
-0.071318686 -0.18136276 -0.035039965 0.07599024 0.009164919 0.09254193 -0.21678482 -0.10136697
0.19277093 0.08781811 -0.19251147 -0.18558693 0.05307771 0.1314722 -0.1255581 0.11882845
0.057112228 -0.04919024 0.18214142 -0.013151941 -0.2255839 0.06261309 0.05935105 -0.1476079
-0.08311665 0.2720615 -0.13124609 -0.17330119 -0.0047708047 0.0780991 -0.012059123 -0.03277869
-0.1414878 -0.11001928 -0.05445167 -0.15258755 -0.034794826 -0.14774697 0.042009413 0.048883036
-0.08263064 0.003663608 0.03112643 0.060616717 -0.16159041 -0.19140913 -0.039009634 -0.15758227
-0.0795212 -0.060840487 -0.17510918 -0.12796539 0.30115616 -0.09396678 -0.059995003 0.05643602
0.042035602 0.1357121 -0.1762025 0.050679527 0.042551905 0.19336239 0.081539616 8.479296e-05
-0.005792928 -0.1460577 -0.0032599445 0.08892109 -0.21872947 0.049503837 0.14514346 -0.06645915
-0.14935175 0.2943593 -0.23058179 0.033957228 -0.068910025 -0.013116113 0.040791005 0.07772526
0.11996841 -0.08648289 0.04537796 0.11909015 0.10230343 -0.03513637 -0.14344771 0.067920886
-0.16815898 -0.08272943 0.08106643 0.015826652 0.025146116 -0.14740595 -0.13285697 -0.005093846
0.11184184 0.07995778 0.2502015 -0.11425676 -0.10850381 -0.13817331 0.0014139474 -0.1640907
0.07518998 0.054572426 0.14295721 -0.029212829 0.13602245 0.072875984 0.06069906 0.32635444
0.0083418405 -0.067596436 0.09109277 0.047692996 0.2692034 -0.16102576 0.08683673 0.060606427
0.015186656 0.24985278 -0.08083745 0.052617192 -0.21728227 -0.0046140864 -0.003052264 0.08613175
0.040189482 -0.020861167 0.10046748 -0.17254984 0.009565848 -0.0019282838 0.17865449 0.18788294
-0.22838368 0.14364024 0.08989327 0.32402426 0.11307852 -0.068479635 0.053004492 -0.091364354
-0.14592199 -0.17812634 -0.22711757 0.095189765 0.0338595 0.048177723 0.18957563 0.07251303

conv3.bias f4 [2]
00000000: fa19 a4bc fa19 a43c
-0.020031918 0.020031918

conv3.lin.weight f4 [2, 128]
00000000: 1236 933e 8670 cebe 22d1 203f e03b fdbe
00000010: 0810 0a3f bdff ca3d 142b 933e b558 bbbe
00000020: 738b f53d f698 30be 695e bbb9 f1b5 05be
00000030: 00a4 3cbe 0499 aebe a144 96be 3454 073f
00000040: c725 c8be f2e1 983e c78e 923e 61b7 04bf
00000050: 6148 f43e db2c d0be 4fec c53e a91b aa3e
00000060: 81db c63e 69e0 a2be 47d9 153f 205b f73e
00000070: 6207 15be 569f aebe 5319 91be 2127 29be
00000080: 3b97 bdbd a03a 08bf f038 ebbd eab1 6ebe
00000090: 3c72 86be 3842 af3e 63cf b53e 7ff7 6ebe
000000a0: c90f 593e 4680 7ebe 1b9c 42be 0347 3ebe
000000b0: 92c6 bb3e e133 9d3e 18f4 543e f47d 803e
000000c0: 70db 86be cb0e 20bd f005 d9be e84b efbe
000000d0: 66dc 8a3e 625b 03bf 6e65 7cbe 6b35 9dbd
000000e0: 1d18 2fbf fc05 a23e 21a3 303e 2f3e 99be
000000f0: 6658 21bf 3a78 30bd 0680 4c3e f361 553e
00000100: d9db 96be f284 ddbe 6fc9 0abe fe91 03bd
00000110: 93b0 ccbe 84bd a93e 8626 cd3e 6f8b 273e
00000120: 5408 9c3e 566e 85be a676 90be 556b 073f
00000130: a089 aa3e bb23 7b3e 658d 2b3e d472 423e
00000140: 908e 973e 3005 873e 31c3 a4bd 4699 00bf
00000150: 28ef f13e c346 263e ccfb 80be 6faf bb3e
00000160: f334 f03e 1e37 d03e 1673 7abe 7336 47bf
00000170: 8da0 9bbe fdab b1be 4183 b7be 3586 a8be
00000180: e701 a83e 6477 a53e 2e62 c63e c1ec 3dbe
00000190: 98af dfbe f4a4 88be be9b 8e3e c0c3 52be
000001a0: a42d b4be ff9e bcbd 5491 cabd 78cc 7fbd
000001b0: 516c 8f3e bbd5 99be 016a 02bf b73b 933e
000001c0: 15d0 2a3f b77a 013e 6415 a3be ffde f73e
000001d0: 7ed6 ccbe 6ea6 b8be 300a d03e 25a1 9e3e
000001e0: 2c7c bf3e d2dd 7dbe 0ebd ed3e c5f8 79be
000001f0: eb28 cf3e 48d1 b03e 05ed 803e 4b44 a3be
00000200: 6706 96be acd1 d23d b38a b2be 3ee8 9c3e
00000210: 2c17 cabe 45d0 8ebe 935a e3be 4541 823e
00000220: dca1 9fbe d6bc 943e 419a a13e dada 9d3e
00000230: 29b4 af3d 3215 c93e 409f 043e 59ed cabe
00000240: d317 8f3e afc1 f6be db39 81bd b857 403e
00000250: 49cb f3be cda3 ae3e 30ba c1be 892d 123c
00000260: 5afb d1be 822e c73e ddf6 f8be e6e8 9ebe
00000270: 7768 aa3e 888f 383e e7ee 8a3e b357 423e
00000280: 26fd 3a3e 8e95 053f c39d 5c3e 83e6 8d3e
00000290: e78d 34bd b74a c9be be8e f1be 38d3 ae3e
000002a0: 8bad 4bbe be57 3d3e b991 d83e 9283 163e
000002b0: 225a e5be ffd2 c5be 3889 09bf 4d44 6bbe
000002c0: 1b53 a93e 5554 3f3e c1c6 cf3e 2021 ad3e
000002d0: b2cf 72be c50c 803e cd0c 863d 8c00 2abe
000002e0: a228 9f3e fe47 983d 121b b4be 11b7 8c3e
000002f0: 56ab a93e dc0a 8cbe 0050 fabd 10fb 00be
00000300: ffd1 b33e cde0 113f de82 b33d 2e20 4fbe
00000310: c38f 0b3f d30e 3ebe 47e0 adbe f6b3 89be
00000320: c6fc a6be 8a1b 1e3e 5091 8d3e 7758 82be
00000330: d1e1 97bd fb15 bfbe ca74 74be 53dc bfbe
00000340: f11f cabe e523 783d 2f5b 1d3e 7044 ae3d
00000350: 1432 7bbe aee3 c43d 1362 453e c81a a5be
00000360: dd21 8cbe 7464 fdbd e15e 1a3e 621e b63e
00000370: 44a7 eb3e f489 ca3e 40fe 163e 0a17 d43e
00000380: 019a bebe f406 f6be 5f52 8cbd 92c2 8b3e
00000390: 9bda ce3e 8a83 f13e a3f3 7bbe b115 7b3e
000003a0: ec2e b63e ae82 b43e d8f9 493d d250 753e
000003b0: c588 87be 2f33 b03e 7a73 cd3e daa6 e93c
000003c0: 6a4f f3be e8e0 8bbe 7e6a 323e 1533 ffbe
000003d0: 1d2e 7a3e 4262 c23e 408b bcbe 3868 08bf
000003e0: e23b 85be cd47 3e3e 9337 9dbe 9b8f 8d3e
000003f0: ecac 84be f899 bbbc 13f5 38be 0498 ae3e
0.2875219 -0.40320224 0.6281911 -0.49459743 0.5393071 0.099120595 0.28743804 -0.36591116
0.119894885 -0.1724585 -0.0003573776 -0.13057686 -0.18421936 -0.34101117 -0.29349235 0.5286286
-0.39091322 0.29859883 0.28624555 -0.51842314 0.4771147 -0.40659222 0.38656852 0.33224228
0.38839343 -0.31811836 0.58534664 0.4831171 -0.14553598 -0.3410594 -0.28339633 -0.16518833
-0.092573605 -0.53214455 -0.11485469 -0.23310056 -0.2625903 0.34230208 0.35509786 -0.233366
0.21197428 -0.2485362 -0.19004862 -0.18581776 0.36674935 0.30703643 0.2079624 0.25096095
-0.26339293 -0.039076608 -0.42387342 -0.467376 0.27121276 -0.51311314 -0.24648067 -0.07676204
-0.6839617 0.3164519 0.17249729 -0.29930255 -0.6302551 -0.043083407 0.19970712 0.20838146
-0.29464605 -0.43265492 -0.13553403 -0.03212165 -0.39978465 0.331524 0.40068454 0.16361783
0.30475104 -0.26060742 -0.28215522 0.5289815 0.33308125 0.24525349 0.16753156 0.18989116
0.29600954 0.26371145 -0.08045042 -0.50233877 0.47252774 0.16237931 -0.25192106 0.36657283
0.46915397 0.4066705 -0.24457964 -0.7781746 -0.30395928 -0.3470153 -0.35842326 -0.32914892
0.3281395 0.3231765 0.3874678 -0.18547346 -0.43688655 -0.2668835 0.27853197 -0.20582485
-0.3519107 -0.092100136 -0.098910004 -0.062450856 0.28012326 -0.30045876 -0.50943 0.28756496
0.6672376 0.12644468 -0.31852257 0.4841232 -0.40007395 -0.36064476 0.40632772 0.3098232
0.37399423 -0.24791649 0.464333 -0.24411304 0.40460905 0.3453467 0.25180832 -0.3188804
-0.2930176 0.10293898 -0.34871444 0.30645937 -0.39470804 -0.27893272 -0.4440504 0.25440422
-0.31178176 0.2905032 0.31563 0.30831033 0.08579285 0.39273983 0.12951374 -0.39634207
0.27947864 -0.48194644 -0.06309863 0.18783462 -0.47616032 0.34109345 -0.37837362 0.008921989
-0.4101208 0.3890267 -0.48625842 -0.31037062 0.33282825 0.18023503 0.27135393 0.18978767
0.18260631 0.5218133 0.21544556 0.2771493 -0.04408064 -0.39314815 -0.47179216 0.34145522
-0.1989042 0.18490502 0.42298678 0.14698628 -0.44795328 -0.3863754 -0.53725004 -0.22975273
0.33071217 0.18684514 0.40581325 0.33814335 -0.23712042 0.25009742 0.0654541 -0.16601771
0.31085688 0.074356064 -0.35176903 0.2748342 0.3313853 -0.27352035 -0.1222229 -0.12595773
0.35121152 0.56983644 0.08765195 -0.2022712 0.5451624 -0.18560342 -0.33960173 -0.26895112
-0.32614726 0.15440193 0.27649927 -0.25458118 -0.07416118 -0.37321457 -0.23872676 -0.37472782
-0.39477494 0.060581107 0.15366815 0.08509147 -0.24530822 0.09613739 0.19275694 -0.32246995
-0.27369586 -0.123726755 0.15075256 0.35570055 0.4602605 0.39558375 0.14745426 0.41423827
-0.3722687 -0.4805218 -0.068516485 0.27296883 0.40401158 0.4717067 -0.24604659 0.24519993
0.35582674 0.3525595 0.049310535 0.23956612 -0.26471534 0.3441405 0.40127164 0.028521944
-0.47521526 -0.27320027 0.17423436 -0.4984366 0.24431653 0.3796559 -0.3682499 -0.53284025
-0.2602225 0.18582077 -0.30706462 0.27648625 -0.2591318 -0.022900566 -0.18062238 0.34100354
