RL_MIM/model.pkl (torch, 95239 bytes, 6 tensors)

conv1.bias f4 [128]
000000 e3 7b 8d bd 36 e8 85 3c 5b ab 87 3d e5 33 52 3c
       -0.06908395 0.016346078 0.0662448 0.012829755
000010 fc 1f 2a bc e0 b5 77 bd 49 ea f0 be ea ec 00 bd
       -0.010383602 -0.060476184 -0.47053745 -0.03147594
000020 dc c6 ae bd 66 b0 c0 bc 89 19 2d 3e 5d 5e 8c bd
       -0.08534023 -0.023521613 0.16904272 -0.06853936
000030 37 07 aa bb ff 18 65 bd e3 7b 0e 3e 06 63 a9 bc
       -0.0051888484 -0.05593204 0.13914447 -0.0206771
000040 e3 6c 81 3d 51 09 3c bd 15 ca 55 bc 3b d8 b9 3d
       0.063195966 -0.045907322 -0.013048668 0.09074446
000050 14 82 26 be 4f f3 ba 3c a2 be 39 be 10 df d9 bb
       -0.16260558 0.022821097 -0.18139127 -0.0066489056
000060 c4 91 fd 3d f7 ac e4 bc f8 64 34 3d 35 52 89 bd
       0.12381318 -0.027914507 0.044041604 -0.06705133
000070 9e 26 e2 3d e4 7e 67 bc 24 be e4 bd d3 12 31 3c
       0.11042522 -0.014129374 -0.11169079 0.010807711
000080 52 e2 3d 3d 3b 81 5e bb de 75 58 3e a2 16 f9 bd
       0.046358414 -0.003395154 0.21138713 -0.1216252
000090 33 41 dd bc 41 5f e6 3b 70 fe 28 3d fd a7 02 bc
       -0.027008628 0.007030398 0.041258276 -0.007974622
0000a0 18 03 9d 3d 05 cd ea bd a8 61 dd 3c fb f7 8d bd
       0.07666606 -0.114648856 0.027024105 -0.06932064
0000b0 fb 82 51 bd fc a5 86 3e 02 9d b6 be 86 16 c1 bd
       -0.051150303 0.2629851 -0.35666662 -0.09428124
0000c0 71 00 47 bd 86 28 e3 3c 4e fe f9 bd ed 92 09 3e
       -0.048584405 0.027729284 -0.12206708 0.13434954
0000d0 f3 f3 e8 3d 4e 9e 92 3d b2 4b b5 bd 41 1f 0e 3d
       0.113746546 0.071591005 -0.08852328 0.034697775
0000e0 0e c2 08 bd d6 ba 20 3b fd af 0a bd a1 26 be bd
       -0.03338819 0.0024525425 -0.03385924 -0.09284712
0000f0 4b 4f 5e bd ac 47 21 3e 9a 6f e2 3d 7f c1 4d 3c
       -0.05427484 0.15749997 0.110564426 0.01255834
000100 80 40 97 bc 59 2c 7a bc 7e 25 a3 3d c5 6b a0 3d
       -0.018463373 -0.015269362 0.079661354 0.078330554
000110 ed f4 3e bd a0 e8 75 be 9c 46 19 3c 37 35 05 be
       -0.0466203 -0.2401452 0.0093552135 -0.13008581
000120 d8 49 8a bc 95 e7 0f 3e c6 57 3b 3e 5b 64 cd bd
       -0.016880915 0.14053185 0.18295202 -0.10028907
000130 52 b7 92 be ea 86 82 bb 5a a7 72 3d 89 b1 4e 3c
       -0.28655487 -0.003983368 0.05924163 0.01261557
000140 77 e0 b9 bd b3 c8 21 bc bd aa f1 3d cd fd b7 3c
       -0.090760164 -0.009874511 0.11800144 0.022459889
000150 c5 ad d4 3e ea 39 1d 3c 46 4f 6e 3d d7 fc af 3d
       0.41538826 0.009596327 0.05818107 0.08593147
000160 cc 22 91 3c 75 89 86 3e 34 20 5a bb 9a 49 0a 3d
       0.017716788 0.26276746 -0.0033283355 0.0337616
000170 ae 5c 96 3d 5a 91 f8 3c 9e d7 22 3e 9e 6d db 3c
       0.07341896 0.030342747 0.15902564 0.026785668
000180 36 49 9d 3d fd f9 00 be 79 f0 c5 3d bb 9a ee bc
       0.076799795 -0.12595363 0.09665007 -0.029126516
000190 1a 03 65 bc 7c 15 90 3d 51 0d 01 bd 49 8a b4 3c
       -0.01397779 0.07035348 -0.03150684 0.022038596
0001a0 f5 2c 78 bc f1 61 e1 3d 7b 88 c2 bd 2b 33 30 3e
       -0.015147437 0.11005009 -0.09498688 0.17207019
0001b0 bc cd 82 bd f2 22 f6 bc 72 51 e3 bd 2e 96 90 bd
       -0.06386897 -0.03004596 -0.11099519 -0.070598945
0001c0 21 5c 66 bc 68 7a 6e bd e5 2d 0c 3d c4 38 52 3c
       -0.014060051 -0.058222204 0.034223456 0.012830917
0001d0 a0 8d 37 bc af 69 78 bd c7 2d f9 3c e9 5f 4f bd
       -0.0112032 -0.060647663 0.030417336 -0.050628576
0001e0 dc 27 d5 bb 8d d8 26 bc e4 31 4e 3c 5a f7 39 3e
       -0.0065049957 -0.010183466 0.012585137 0.18160763
0001f0 9c f8 42 3b 3d aa 14 bd 0c 0d db bd f5 88 c7 3b
       0.0029750234 -0.036295164 -0.10695848 0.0060893246

conv1.lin.weight f4 [128, 50]
000000 59 3e 96 3e 24 9a fa 3d d7 76 a4 3e d5 12 c1 be
       0.29344442 0.12236431 0.32121918 -0.3770968
000010 ce a5 70 be 82 1f 82 3e 5b fd 2c bc 5c 17 8b 3e
       -0.2350075 0.25414664 -0.0105584515 0.2716626
000020 d1 0f 36 3f c8 41 d6 3e 3a 5e e9 3e 5d d3 aa bc
       0.71117884 0.41847062 0.45579702 -0.020852739
000030 ba 66 20 bd 5b 2a 19 be 82 05 86 3e 71 ef 49 3e
       -0.039160468 -0.14957564 0.26176077 0.19720246
000040 e9 17 33 bd 58 7e 5d 3e 56 11 f4 be 9c 14 11 bf
       -0.043723974 0.21630228 -0.47669476 -0.5667207
000050 54 06 25 3e 9f ce 21 be f5 76 08 be d3 c5 c8 be
       0.16115695 -0.15801476 -0.13326629 -0.39213428
000060 ee a2 04 be a5 26 22 bf f1 58 ec 3d 4a de f6 be
       -0.12952778 -0.63340217 0.11540402 -0.48216468
000070 3e 5f b3 bd c5 ce b1 be 83 a6 d4 3e 39 5a 0f 3f
       -0.087584004 -0.34728065 0.41533288 0.55997044
000080 26 0c 07 3d 7d c7 d6 be f7 ba 4e be 8c d6 64 3e
       0.03297057 -0.41949072 -0.20188509 0.22347468
000090 ff 58 28 bd f2 d5 35 be 51 c4 30 3e d9 02 89 be
       -0.0411005 -0.17757395 0.17262389 -0.26759985
0000a0 59 d7 2c 3e 49 41 73 3d bd e7 8e be 36 b2 4c be
       0.16879024 0.059388433 -0.27911177 -0.19989857
0000b0 ec b6 15 3e 21 9d 26 bf dd 2c 29 bd e0 c4 be be
       0.1462056 -0.6508351 -0.04130255 -0.3725958
0000c0 c6 7b a6 3d 8b 6e 16 be 9b d2 c1 bd d6 1c 61 3d
       0.08129077 -0.14690606 -0.09463998 0.05495914
0000d0 49 34 e5 3d 4b f8 93 bd 4e 44 0d 3e f8 fa de bd
       0.11191613 -0.072250925 0.13795587 -0.10887712
0000e0 bc 83 49 3d d6 c8 69 bd 39 08 14 3e 1e 37 b6 bd
       0.049197897 -0.057076298 0.14456262 -0.088972315
0000f0 14 48 ba bd ad 2f 6f 3d 70 f4 42 3e e2 63 1d be
       -0.09095779 0.058395077 0.19038558 -0.15370134
000100 d1 a9 29 3d 6a f6 f3 bc e9 91 66 bc aa db 34 be
       0.041421715 -0.029780585 -0.014072874 -0.1766192
000110 b1 fe 38 be 27 97 7f bd 38 1c 62 bd 85 15 4a bc
       -0.18065907 -0.06240001 -0.055202693 -0.012334232
000120 db d0 21 3c 00 6e 32 3e 67 77 32 be 5e 70 4e 3e
       0.009876455 0.17424774 -0.17428361 0.20160052
000130 03 e6 5d bd c0 df fc bd 9a bc 55 3d 2d 81 a5 bd
       -0.054174434 -0.123473644 0.052181818 -0.08081279
000140 7f bb fe 3d 1b fd b0 3c 8f 2f bb be f2 32 1d 3d
       0.12438106 0.021605065 -0.36559722 0.038378663
000150 3e 64 88 3d bd 4f 7e be 0d 25 19 be 1f af cd 3b
       0.06659745 -0.24835105 -0.1495554 0.0062769796
000160 5f 80 0f be fa a9 23 3e 17 a9 0f be 2b a5 2a 3e
       -0.14013813 0.1598281 -0.14029346 0.16664569
000170 51 0d 08 be ce 9c 03 3e e1 e9 02 bc fe dd 8e bd
       -0.1328633 0.12852785 -0.007990331 -0.069759354
000180 49 ae 87 3c cf e8 f9 3d 57 a3 88 bd 90 ed 37 3e
       0.016562598 0.12202608 -0.066717796 0.17961717
000190 a8 d1 44 be 70 f2 e1 3d 36 20 70 3d 62 c8 06 be
       -0.19220603 0.110325694 0.05862447 -0.13162377
0001a0 29 40 b1 bd 32 90 a6 bd 5b 55 82 bc 30 44 8b 3d
       -0.08654816 -0.08132972 -0.015909841 0.06800115
0001b0 9d e8 62 3d bf 87 78 bd 36 97 9e bd 6a 6d 3f be
       0.05539762 -0.060676333 -0.07743685 -0.18694082
0001c0 49 90 7d 3d 50 5e fa 3d f3 3f fb bd 2d 46 0e 3c
       0.06190518 0.1222502 -0.12268057 0.008683723
0001d0 73 72 0a 3e bb 21 b9 b9 03 fc c8 3d 69 7a 78 bd
       0.13520221 -0.0003531108 0.098136924 -0.060663614
0001e0 ec da de 3d e8 c6 cd 3d 47 af fc 3d d0 22 1f 3e
       0.108816 0.10047704 0.12338119 0.15540624
0001f0 2f 99 8d 3d 5b 32 2b be f5 24 53 bb 5d 76 14 3d
       0.06913983 -0.16718428 -0.0032218073 0.036245693
000200 aa d1 58 3e b4 9a e6 3d d6 c2 32 3e a5 cd 4b 3e
       0.2117373 0.11259976 0.17457137 0.19902666
000210 0b 6c bb bd 0c 19 11 be 9e 9b 27 bd 4f 28 fa bd
       -0.09151467 -0.14169711 -0.040919892 -0.122147195
000220 99 50 9b bd 91 d8 5c 3d d6 d7 b7 bd 40 c4 71 3b
       -0.07583732 0.05391747 -0.08976714 0.0036890656
000230 e3 c8 78 3d af 80 86 3d be 94 d4 be e3 75 ba bd
       0.060738456 0.06567513 -0.4151973 -0.09104516
000240 96 ca 18 bc dc 80 41 3d dc a1 b2 3e fd 89 c7 bd
       -0.009325644 0.04724203 0.34889114 -0.09743116
000250 dc b2 c5 3b 90 13 2e be b8 cd 05 3e fa f2 15 3e
       0.0060332846 -0.1699965 0.13066757 0.1464347
000260 b6 2c 43 bd ab c9 c7 bd 8c 2c 4a bb d8 d8 81 3e
       -0.04765006 -0.09755262 -0.0030849306 0.2536075
000270 24 1b 5d 3e fe 0f 41 3e 75 f4 10 3d a1 43 6c 3e
       0.21592385 0.18853757 0.035389382 0.23072673
000280 c3 2d 0e 3d bb 2c 31 3b c9 39 f2 bc af 7b 43 be
       0.03471161 0.0027034718 -0.02956857 -0.1909015
000290 4c 2c e0 bc 46 e4 88 3d ef 92 08 3d 91 83 ef bd
       -0.027364872 0.06684165 0.03334325 -0.11695016
0002a0 76 b6 22 be 05 9a 23 be f7 df 56 be 0a 6e 7c be
       -0.15889916 -0.15976723 -0.20983873 -0.24651352
0002b0 e5 1a 08 be 8e 3a 23 be d9 4f 22 3e c7 0d d2 bd
       -0.1329151 -0.15940306 0.15850772 -0.10256534
0002c0 e1 fe 34 bc 67 03 45 3d a1 74 a0 bc ea fa c9 bd
       -0.011047096 0.048098948 -0.019586863 -0.09862311
0002d0 2b d9 c0 3d 47 55 2f 3e 81 f6 80 3e 8e c0 86 3e
       0.094164215 0.17122374 0.25188068 0.26318783
0002e0 9d 0b 75 3d 62 34 30 bd 69 a0 3a be 90 d9 18 bc
       0.05982553 -0.043018706 -0.18225254 -0.009329215
0002f0 14 78 33 3e 39 81 36 bd bc 07 6e 3e ad b9 9f 3d
       0.17526275 -0.04455683 0.23245138 0.07799087
000300 e8 6c 8b 3e 6c 1e a3 3d 4f c1 66 3c 5b 08 90 be
       0.27231526 0.07964787 0.014084174 -0.28131375
000310 fa 99 9a 3d e9 d3 46 bc 09 14 6d 3d 5f 65 0c 3e
       0.075489 -0.012135484 0.057880435 0.13710545
000320 78 eb a0 3c ea 4d ff 3d c9 3a 17 3e bf e5 de 3d
       0.01964353 0.12466033 0.14768519 0.10883664
000330 ae ea 2f be 46 c4 a0 bd c4 a1 c5 bd db 8a 95 bd
       -0.17179367 -0.07849936 -0.09649995 -0.07301875
000340 61 27 53 3c af bf 01 be cc f9 3b be 1f b8 92 bd
       0.012887807 -0.12670778 -0.18357009 -0.071640246
000350 ce fb 49 3e 90 f6 37 3e 2b be 2e 3e be 4b d2 3d
       0.19724962 0.1796515 0.17064731 0.10268353
000360 38 5c 3d 3e 7e 33 cc 3d c9 a9 99 3d c7 e2 a3 3d
       0.1849221 0.09970759 0.07503087 0.08002239
000370 10 3f 9d bc a4 20 be 3c 9f bc 2d 3e 96 56 e2 bc
       -0.01919511 0.023208924 0.16966484 -0.027629178
000380 e6 b8 24 be 6e 36 1b 3d 04 ba 4b bd f1 4f 4d 3e
       -0.16086158 0.037893705 -0.049737945 0.20050026
000390 b9 7c 76 bd 7d 73 4d be 95 0c 9d bd 1e 9f 64 3c
       -0.06017754 -0.20063587 -0.076684155 0.013953952
0003a0 a8 e2 15 bd 9e ab 3c be 6e cc 2d 3e 40 69 1f be
       -0.03659311 -0.18424842 0.16972515 -0.15567493
0003b0 e1 4d 4f 3c 26 ec 54 3d e9 99 8d 3d b9 11 66 3e
       0.012652845 0.05198302 0.06914122 0.22467698
0003c0 16 4f b0 bd d3 90 72 bd 28 ff 06 be 96 13 a9 3d
       -0.086088344 -0.059220146 -0.13183272 0.08255689
0003d0 45 45 b2 bd 8e a1 27 3d 60 8d 83 ba f0 38 04 3e
       -0.08704618 0.040925555 -0.001003664 0.12912345
0003e0 87 c5 3f 3d 90 cf 29 3e 1b f0 13 bd d5 53 28 bd
       0.046819236 0.16583085 -0.036117654 -0.041095573
0003f0 eb b9 47 be ce 61 9f 3e 06 d0 bf 3d 3a 1d 13 be
       -0.19504516 0.31129307 0.09365849 -0.14366618

conv2.bias f4 [128]
000000 be 59 8a bd 88 c9 8d 3e 7c d1 57 be 47 54 c2 bd
       -0.06755398 0.2769282 -0.21076006 -0.09488731
000010 df fd 75 be 36 ec 94 bd 84 a2 c9 3d 6a 3a 3b 3e
       -0.24022625 -0.07271616 0.098454505 0.18284002
000020 73 84 b2 bd 13 04 23 be bc de 14 be a1 a5 2e be
       -0.08716669 -0.15919523 -0.14538091 -0.1705537
000030 23 d6 0c 3e 6e 10 ed bd ec f1 12 3e fd 09 26 bf
       0.13753562 -0.11575399 0.14350098 -0.6485899
000040 cd ee 8e be e6 30 ae bd 8c 43 33 3e b9 6d a1 3d
       -0.27916566 -0.085054204 0.17506236 0.07882256
000050 1a a6 67 3e 18 0f ba bd 2c 6f db be 0a 53 c7 3d
       0.22621956 -0.0908491 -0.42858255 0.09732635
000060 85 21 4e be 3b 78 b8 bd 0a 7e cf 3d be 08 a8 3d
       -0.20129974 -0.09007307 0.10131462 0.082047924
000070 bc 21 68 be 74 60 b7 bd 28 db e2 bd 71 14 0c be
       -0.22669119 -0.08953944 -0.11076957 -0.13679673
000080 da a6 fa bd 14 74 55 3e 87 45 69 3e e1 68 eb bd
       -0.12238856 0.20845062 0.22780429 -0.114946134
000090 be 37 20 3e 61 25 2e 3f 71 ec 49 be 4b ee d9 be
       0.15646264 0.68025786 -0.19719101 -0.42564616
0000a0 11 75 73 be 6b 70 22 3e ee b2 9f bd 7c 4f 1f 3e
       -0.23775126 0.15863197 -0.077978 0.15557665
0000b0 ca 46 fd 3d bd 03 fe 3d 0c ab 1f be 8b 78 d8 bd
       0.123670176 0.12403057 -0.15592593 -0.10569867
0000c0 d1 99 94 bd fd 9d f8 bd ba 8d 30 be 71 72 a7 bd
       -0.07255901 -0.12139509 -0.17241564 -0.08176125
0000d0 0b 0b be bd da e8 03 3f 2b 75 de 3d 51 8e 02 be
       -0.0927945 0.5152718 0.10862192 -0.12749602
0000e0 3e 89 e2 bd 53 12 a3 3d 9b ca a0 bd bc 0a 10 be
       -0.11061333 0.079624794 -0.07851144 -0.14066595
0000f0 ea 3a 01 be ab 45 ba 3e d4 c0 30 3e bb e4 65 be
       -0.1262013 0.36381277 0.17261058 -0.22450535
000100 ca 2e d7 3d 91 7b eb 3d 66 6a c1 3d 3c ad 4b 3e
       0.10506971 0.11498178 0.09444122 0.19890302
000110 14 18 86 bd a0 f3 02 bf 4d 54 db bd 07 68 ac 3e
       -0.06547561 -0.5115299 -0.107094385 0.33673117
000120 8a 36 bb 3d 28 31 ab be f6 a5 cb bd fc 06 24 be
       0.09141262 -0.3343594 -0.09943764 -0.1601829
000130 e8 9b a3 3d 11 e6 21 be e8 ce ec 3d b4 f5 23 be
       0.07988721 -0.1581042 0.11562902 -0.16011697
000140 a4 ea cd bd bb c8 1e 3e 64 5d 8d bd 40 a1 38 3e
       -0.1005452 0.1550626 -0.069025785 0.18030262
000150 03 41 90 bd 2e 29 3b be ab 55 b6 3d d8 dd aa 3d
       -0.0704365 -0.18277428 0.089030586 0.083430946
000160 6d fb b8 3d 5d 75 aa 3d 72 ec 06 3e d7 00 41 3e
       0.09032331 0.083231665 0.13176134 0.18847977
000170 c7 a2 06 3e 3c 4f 23 be 85 c0 32 be 10 13 c2 3d
       0.13148032 -0.15948194 -0.17456253 0.09476292
000180 6e 6a c5 bd 92 e5 89 bd 2d 35 08 3f 66 c7 5d be
       -0.096394405 -0.0673324 0.5320614 -0.21658096
000190 4c ca be 3e f4 bb 4a 3e d3 42 a8 bd 27 99 a6 3d
       0.37263715 0.19798261 -0.08215871 0.0813468
0001a0 1a 84 82 3e ed 6e 3d bf 54 0d d3 bd 0f 62 d5 3d
       0.2549141 -0.73997384 -0.103052765 0.10419094
0001b0 4c bd 53 be 8d 61 92 3e 1e c9 a3 bd d5 55 e2 3d
       -0.2067768 0.2859005 -0.079973444 0.110515274
0001c0 63 3f e5 3d 31 e0 ab 3d a5 82 a3 3e 91 4b e8 bd
       0.11193731 0.083923705 0.3193561 -0.11342538
0001d0 9e 7a 67 bf 90 05 b8 bd cc 78 17 3e e5 6e c4 bd
       -0.90421474 -0.08985436 0.14792174 -0.09591464
0001e0 14 28 0f 3e 25 c2 d5 bd ae 35 11 3f 3f 6c b9 bd
       0.13980132 -0.10437421 0.56722534 -0.090538494
0001f0 c8 f0 39 be 86 27 0b 3e db 78 c2 3d 89 8d 9d bd
       -0.18158257 0.13589296 0.094957076 -0.07693011

conv2.lin.weight f4 [128, 128]
000000 76 80 62 3d c5 ab 70 bc 9a 3a 00 bc 40 59 18 3e
       0.05529829 -0.014689391 -0.007826472 0.14877796
000010 18 86 fa 3d 5e 4e b6 bd 11 0a 49 ba 97 eb d1 3d
       0.122326076 -0.08901666 -0.00076690415 0.10250013
000020 79 af 01 be d0 a0 ee bd 41 d3 46 be 63 45 08 3e
       -0.12664594 -0.11651766 -0.19416524 0.13307719
000030 45 31 cb bd 4c 9d 2c bd a5 2f 2a 3e 80 22 2d bd
       -0.09921507 -0.042142197 0.16619737 -0.04226923
000040 73 4d a9 bd a6 e5 58 3c b7 fe a6 3d 3c c7 1e bb
       -0.082667254 0.013238346 0.08154052 -0.002422764
000050 9b 96 bc 3d e5 84 02 be f8 c1 b9 bd db c3 0b be
       0.09208413 -0.12746008 -0.090702 -0.13648932
000060 d5 d2 8f bd 15 95 be 3d 9e e8 10 3e 95 8c 69 3e
       -0.07022635 0.09305779 0.14151236 0.22807534
000070 db 16 3d be d8 f6 be 3d 58 74 aa 3d 49 d1 cf b9
       -0.1846575 0.093244255 0.08322972 -0.00039638046
000080 11 ea 07 be 3c ca 19 be 55 f3 22 be a5 15 db 3d
       -0.13272883 -0.15018553 -0.15913136 0.10697488
000090 c4 f6 9b be 01 16 54 3d bd 4c 55 be fa c3 8b 3d
       -0.30461705 0.051778797 -0.20830055 0.06824489
0000a0 67 c2 fa bd a3 1b 29 3e a0 2f 66 3e 5a a1 ef 3b
       -0.122441106 0.16514449 0.22479105 0.007312936
0000b0 ad b8 34 bb d8 9c 82 be 5c 69 c0 3d 7a 7c b8 3d
       -0.0027575896 -0.25510287 0.09395096 0.09008117
0000c0 fe 38 0b 3e 38 04 a0 bc cb 65 4b 3d d9 97 e4 bd
       0.1359596 -0.019533262 0.049657624 -0.11161775
0000d0 ed 77 a3 3d 1c 80 d0 3d 43 92 5e be fc 8c fa 3d
       0.079818584 0.10180685 -0.21735482 0.12233922
0000e0 be f2 1f bd a3 b0 69 bd dd 14 99 bd 39 d9 3b 3e
       -0.039049856 -0.05705322 -0.074746825 0.18344583
0000f0 a4 75 2e bd 66 f9 8e bd 96 8f 57 3a 4b 41 05 bc
       -0.04259266 -0.06981163 0.0008222995 -0.008133243
000100 f1 37 4d bd ee d3 43 3d f1 2a 51 3d a4 f2 25 be
       -0.050102178 0.047809534 0.051066343 -0.16205841
000110 20 34 c0 bc ba 92 cd bd 43 95 98 bd d6 fc 9b 3d
       -0.023462355 -0.100377515 -0.074503444 0.07616584
000120 ff 7c 9b bc 01 d2 0b 3e e7 34 51 bd 46 ee ba 3d
       -0.018980501 0.13654329 -0.051075842 0.09127478
000130 18 fc 61 bc 8f 25 04 be a3 36 de 3b fd 86 0a 3e
       -0.013793014 -0.12904952 0.0067814155 0.13528056
000140 ff d7 0a 3e 1f d7 17 be 14 c9 f6 bc 7a 36 57 bd
       0.13558958 -0.14828156 -0.030125178 -0.052542187
000150 bd d1 30 be 2e 01 3f be 61 cb ab bd 64 50 34 3c
       -0.17267509 -0.18652794 -0.08388401 0.011005495
000160 87 af 2f bd 2a fa a6 bd 58 5d c8 3c 28 a4 8c be
       -0.042892005 -0.08153184 0.024458572 -0.2746899
000170 ae e3 52 bd f5 a0 ed 3d 83 f6 38 bc ab 3e ee 3d
       -0.051486664 0.11602966 -0.011289242 0.11633047
000180 88 12 08 be 8c ca a1 3d dd 18 89 be c0 7f 32 3e
       -0.13288319 0.07899961 -0.26776782 0.17431545
000190 e4 8d 9c 3b fd 53 93 bd f5 31 a9 bd a3 e0 ff 3d
       0.004777657 -0.07193754 -0.08261482 0.12494018
0001a0 96 44 de 3d 42 18 c2 bd 9a ef 3f bc d3 0f 59 be
       0.108529255 -0.09477283 -0.01171484 -0.21197443
0001b0 9f d3 0b 3e 47 fc 5e 3d b0 23 35 3e 44 db b9 3d
       0.13654946 0.05443981 0.17689395 0.09075025
0001c0 99 b6 1b bd 5c 15 b9 3d b5 d0 8f bd f8 d0 50 3e
       -0.038015936 0.09037277 -0.070222296 0.20392215
0001d0 f5 0e f6 39 18 45 43 bd c9 c4 79 bd 8e 24 ed 3d
       0.0004693192 -0.047673315 -0.060978685 0.11579238
0001e0 42 ae b3 bd 22 0d 02 be ff a3 d7 bd 33 2a e1 3d
       -0.087734714 -0.12700322 -0.10529327 0.10994377
0001f0 4a c6 de 3d d9 6c 86 3a 84 36 46 3c 6c 4d 71 bd
       0.108776644 0.0010255828 0.0120979585 -0.058911726
000200 44 ad 81 bb 71 ce 17 3e 66 ab 24 bd 1d dc ee bd
       -0.0039574225 0.14824845 -0.04020252 -0.11663077
000210 85 ba 53 3d 66 2c 0a 3a ea 04 92 bd 0c 3a c9 3d
       0.05169155 0.0005270898 -0.071298435 0.09825525
000220 cb c9 05 3e a5 c9 15 3d 4f 05 f9 bd 26 27 91 3b
       0.13065259 0.036569256 -0.12159216 0.0044297157
000230 f5 e8 70 bc b0 a8 06 3d 86 07 08 bd 45 a3 a1 3e
       -0.014703979 0.032875717 -0.0332103 0.31569877
000240 ac 52 d3 bd 2d 5e b4 3e 10 4c 94 3c 23 31 42 3d
       -0.10318503 0.352281 0.018102676 0.04741014
000250 ca 61 cf bd ed 50 37 be 72 b6 d0 3e 1e c9 10 bd
       -0.10126074 -0.17901964 0.40764195 -0.03534805
000260 c8 9f 2e 3e 67 0a 06 bd ae 3c 1a be 5e 9a 8c bd
       0.17053139 -0.032724764 -0.1506221 -0.06865381
000270 a6 30 fb 3d 98 87 7b be 52 19 11 3e 9f b9 82 bd
       0.12265138 -0.24563444 0.14169815 -0.06383061
000280 3f 21 bb bd 87 e2 7c bd b6 02 f9 3d 18 18 84 be
       -0.091372006 -0.06173947 0.1215872 -0.25799632
000290 d6 6e e2 3e 63 59 b2 3c 39 d8 07 be 28 4e 0f be
       0.44225186 0.021771139 -0.13266076 -0.13994658
0002a0 38 ad a4 bd 37 8f 35 bd 81 43 52 3c cb 90 45 3e
       -0.08040851 -0.044326033 0.012833477 0.19293515
0002b0 2d 0c 1e be b5 b0 92 bc 74 a0 75 3b 02 9e 82 be
       -0.15434332 -0.017906526 0.003747967 -0.25511175
0002c0 17 09 3f 3e 96 35 0d be c2 ab 44 bd ec 4e 88 bd
       0.18655811 -0.13789973 -0.048015364 -0.06655678
0002d0 fd fd ae 3d 50 8f 70 3e f7 d7 de 3e a6 22 6a bd
       0.08544538 0.2349217 0.43524143 -0.05716195
0002e0 27 2b 81 be 9d 5a 38 3e 67 82 21 3d 42 c2 6e bc
       -0.25228235 0.18003316 0.039431002 -0.014572682
0002f0 49 5d 0f 3e 95 1d 69 be b4 ef 7c 3e 3d 1e 81 bc
       0.14000429 -0.22765191 0.24700814 -0.015761489
000300 06 c3 57 bd 25 cb f0 3d a3 c9 be bd e5 2d 93 bd
       -0.052676223 0.11757497 -0.09315803 -0.07186488
000310 f6 6a 95 3e d2 2c 91 3d 1b 56 10 bc 73 e5 f9 3d
       0.29183167 0.07088627 -0.008809592 0.12201967
000320 0e 75 de 3c 12 3d 8c bd 26 99 12 be b4 16 60 3d
       0.027155425 -0.06847586 -0.14316234 0.05470915
000330 f7 5d 1f bd c2 14 52 3e 95 15 4b bd c9 45 9a 3d
       -0.03890797 0.20515731 -0.04958113 0.07532842
000340 5f 72 d7 bc ab ae 19 3e 6f 1d c4 3d 94 bc 70 3e
       -0.026299654 0.15008037 0.095759265 0.23509437
000350 b7 23 24 be 99 5a db bd 73 bd 0f bf b2 1a 14 3d
       -0.16029249 -0.107106395 -0.5614845 0.03615827
000360 80 e2 11 3d 02 27 17 be 75 f0 4e 3e 52 08 aa bc
       0.035616398 -0.14760974 0.20208915 -0.02075592
000370 b9 8c 81 be 24 58 93 3b d6 42 14 3d e5 92 8e be
       -0.25302675 0.004496591 0.036196552 -0.27846447
000380 b2 bc 94 bd 08 35 0b 3e ad 83 2f 3e 86 b2 3f be
       -0.07262553 0.13594449 0.17140074 -0.18720445
000390 20 22 bf bd 74 57 9e 3d 8c bb 18 be 96 f8 95 bd
       -0.09332681 0.07731524 -0.14915293 -0.07322805
0003a0 cf 3a 19 be 75 95 0a be 38 41 98 3f a8 8e 50 3d
       -0.1496384 -0.13533576 1.1894903 0.050917298
0003b0 19 63 b7 bd f5 03 1c 3f e9 84 c4 3d 5c 52 83 3e
       -0.08954448 0.6094354 0.09595663 0.25648773
0003c0 86 9d 05 3f 64 2f 17 3e a6 37 b1 bc 73 9e 8b be
       0.52193487 0.14764172 -0.02163298 -0.27269325
0003d0 42 b9 c7 3d 77 9b ec 3d 5d a9 cc bd 7f 9d ff 3d
       0.09752132 0.1155309 -0.09993241 0.12481212
0003e0 80 c2 5e 39 79 ae e3 bd 58 63 1b be 57 7c a8 bd
       0.00021244027 -0.111172624 -0.15174615 -0.08226841
0003f0 ef f9 24 be 7a ee ae 3e 52 42 32 3e bc 95 93 bd
       -0.16110967 0.34166318 0.17408112 -0.07206294

conv3.bias f4 [2]
000000 52 1e 81 3f 52 1e 81 bf
       1.0087378 -1.0087378

conv3.lin.weight f4 [2, 128]
000000 4c 2b c1 be 86 30 94 3d 97 03 a8 be f1 86 a1 be
       -0.37728345 0.072358176 -0.3281524 -0.31548265
000010 71 a0 d8 be 47 a4 e2 bd 04 e2 ad 3e 51 3e bd 3e
       -0.42309907 -0.1106649 0.339615 0.36961606
000020 16 31 64 be 10 67 09 bf 7c 3e 0b bf 39 6d e8 be
       -0.2228435 -0.53672886 -0.5439222 -0.4539583
000030 92 b7 6d 3e fb 5c a5 be 39 78 82 3e 92 d0 46 bf
       0.23214558 -0.322975 0.25482348 -0.77662003
000040 b1 7c e6 be 31 e1 52 bc 78 22 b1 3e 85 99 79 3e
       -0.45017007 -0.012871073 0.3459661 0.2437497
000050 5c 35 99 3e 32 9c 13 be a7 d3 ab be 5f c4 c9 3e
       0.29923522 -0.14415053 -0.33559915 0.39407632
000060 38 02 3a bf 42 a5 e2 be d2 1e 91 3e a8 39 e8 3d
       -0.72659636 -0.44266707 0.28343827 0.11339122
000070 54 1a e9 be cb c2 d6 be 67 af a4 be 34 74 4a be
       -0.455279 -0.4194549 -0.3216507 -0.1977089
000080 67 e5 03 bf 9e cc 5c 3f a2 91 39 3e 62 a7 ab bd
       -0.51521915 0.8624972 0.18121961 -0.08381535
000090 76 fc 34 3e 91 40 f9 3e b3 46 a6 be 19 ac 40 bf
       0.17674431 0.48682073 -0.32475814 -0.752626
0000a0 12 33 ce be dc 1d 0f 3f f8 55 a5 be ae 1f 89 3e
       -0.4027334 0.55904937 -0.3229215 0.26781982
0000b0 98 c3 21 3f 94 ea dd 3e 1e 19 1a bf 21 84 94 be
       0.6318908 0.4334303 -0.60194576 -0.29007056
0000c0 97 19 da b9 8b 52 94 bd 3f 11 f0 be 6a 1e 8c be
       -0.00041599266 -0.07242306 -0.46888158 -0.27366954
0000d0 f7 e0 5d be 89 d7 0f 3f f3 fd e7 3e 1f 52 a5 bc
       -0.21667849 0.56188256 0.45310935 -0.02018076
0000e0 be b1 c9 be 7d 77 83 3e 46 c3 41 be f2 0d cc bc
       -0.3939342 0.256771 -0.18922147 -0.024908993
0000f0 bb 4f 91 be 8e 6b 4c 3f 5e 10 22 3f 50 62 ce be
       -0.28381142 0.79851615 0.63306224 -0.4030938
000100 84 0b aa 3d 49 d0 47 3e ba cc 6a 3e de a9 08 3d
       0.08302978 0.19513048 0.2292966 0.033365123
000110 b5 09 a3 be 78 68 20 bf b3 e3 ba bd 6a 15 5c 3f
       -0.31843343 -0.62659407 -0.091254614 0.85970175
000120 46 47 18 3e aa cb 20 bf f3 b5 98 be 81 b7 a2 be
       0.14870939 -0.62810767 -0.29826316 -0.31780627
000130 44 9f 8e 3e f9 f6 26 bf db 87 42 bc 85 a4 bf be
       0.27855885 -0.652206 -0.011873211 -0.37430206
000140 2d a6 e3 bd b8 99 a1 3e 78 d7 1c be f3 c2 f4 3e
       -0.1111568 0.3156259 -0.1531657 0.47804984
000150 11 46 92 be 76 d8 92 be 67 75 4f 3e 99 d1 94 3e
       -0.2856908 -0.28680772 0.20259629 0.2906616
000160 6c d8 56 3e e8 87 63 3e 76 60 65 3e 20 15 af 3e
       0.20980996 0.22219813 0.22400078 0.34195805
000170 2d e9 16 3e b1 88 96 bd ba 4f db be 89 b9 3c 3e
       0.14737387 -0.073502906 -0.42834264 0.18430151
000180 50 00 63 be b1 66 88 be 07 2d 6d 3f 5c 25 68 be
       -0.22168088 -0.26640847 0.9264683 -0.22670501
000190 3f 51 95 3e 17 e7 dc 3e c6 3e a3 be 4b c1 f0 3d
       0.29163548 0.43145058 -0.3188383 0.11755618
0001a0 94 ed 0e 3e 9f 5f 2f bf 7f 5a 53 bd d3 b8 c0 3e
       0.13957816 -0.6850528 -0.051599976 0.3764101
0001b0 72 88 8d be 10 35 cc 3e c2 b4 82 3c a8 45 9a 3e
       -0.27643162 0.39884233 0.015955333 0.30131269
0001c0 aa 74 c1 3e a3 91 de bb 43 09 ff 3d 7c d0 f9 be
       0.3778432 -0.0067922636 0.124529384 -0.48791873
0001d0 64 2d 70 bf e3 b9 90 be 3a 6a 39 3e 21 e9 ca be
       -0.9381926 -0.2826682 0.18106928 -0.39630988
0001e0 2f e7 65 3e d0 29 20 bf 3e f1 40 3f 01 8d 8b 3b
       0.22451471 -0.625638 0.75368106 0.0042587523
0001f0 ad ee 0d 3d 44 7e 90 3e cc 86 b9 3e 77 a8 e3 3c
       0.034651447 0.28221333 0.36235654 0.027790291
000200 43 73 ab 3e eb e5 df be 5b 4b 5a 3d 93 68 aa 3e
       0.33486375 -0.437301 0.05329452 0.3328291
000210 d4 da 39 3e a3 81 0b 3e 03 2e ce be ba 4f 93 bd
       0.18149883 0.13623671 -0.4026948 -0.07192941
000220 47 64 ea 3e d9 5d d1 3e db 67 c9 3e c6 32 11 3f
       0.4577963 0.40891913 0.39337048 0.567181
000230 c7 09 1c be 5d e2 56 3e 17 cf 0a bd 8a 39 13 3f
       -0.15238105 0.20984788 -0.033888903 0.5750967
000240 37 16 12 3e b3 7c 08 3e 6a 1e 36 be 9f e7 93 bd
       0.14266287 0.13328819 -0.1778504 -0.072219126
000250 43 a3 ae be f1 1e 65 3e c6 13 c4 3e 77 e9 a1 be
       -0.34108934 0.22375084 0.38296336 -0.31623432
000260 3c 39 12 3f d4 11 c6 3e b9 22 fe 3b cc 05 64 be
       0.5711858 0.38685477 0.007755604 -0.22267836
000270 df dd 31 3f 3f 20 ac 3e 97 eb 49 3e cd a0 5b 3e
       0.69479173 0.33618352 0.19718777 0.2144806
000280 ec dc e2 3e 95 6d 85 bf 5e ba de be e1 38 b6 3e
       0.44309175 -1.0424067 -0.43501562 0.3559027
000290 a5 04 cd be aa d4 66 bf ba c2 14 3e f5 9a bd 3e
       -0.40042606 -0.9016825 0.14527407 0.37032285
0002a0 97 fb d9 3e e6 ad 14 bf 3c c5 8f 3e 19 81 0c be
       0.4257476 -0.5807785 0.28080165 -0.13721122
0002b0 06 c2 06 bf a5 86 83 be c9 4d fb 3e e0 99 7c 3d
       -0.52639806 -0.25688663 0.49082783 0.061670184
0002c0 3f b7 31 3e aa 23 4b 3d 66 30 6f 3e 6b c4 bb 3e
       0.17355059 0.04959456 0.23358306 0.36673293
0002d0 94 ae 95 3e 0e 02 2d bf 40 6b eb be ee c0 be 3e
       0.29234755 -0.6758126 -0.45980263 0.3725657
0002e0 41 fc f1 3e e6 f1 71 be 66 d6 50 3e 0b a1 89 3e
       0.47262767 -0.23627433 0.20394287 0.2688068
0002f0 98 90 07 bd 55 22 f8 be 83 5a 05 bf c9 9d c3 3e
       -0.03309688 -0.48463693 -0.52091235 0.38206318
000300 01 39 6f be 38 6d 6c be 09 7d 56 be 26 60 3a be
       -0.23361589 -0.23088539 -0.20946135 -0.1820074
000310 82 4b 69 3e b4 5e 1f 3f e3 d9 a1 3d 3f d3 48 bf
       0.2278271 0.6225388 0.07902887 -0.78447336
000320 db f1 98 be 38 ac 9f 3e b9 0d 92 3d fd b5 9b 3e
       -0.2987202 0.3118608 0.07131524 0.30412284
000330 b4 3b 9e be ec 61 1f 3f c1 c1 95 be 01 32 20 3f
       -0.30904925 0.6225879 -0.29249385 0.625763
000340 e5 18 bc 3e 4d da 88 bd 4e 52 5d 3e 60 6d 28 be
       0.36737743 -0.066822626 0.21613428 -0.16447973
000350 94 77 80 3e 12 8d c4 3d 67 05 77 be 71 c5 8e be
       0.2509123 0.095972195 -0.24123155 -0.2788501
000360 f5 99 3a be 4f 63 68 be 33 5b 6a be 81 56 07 bf
       -0.18222792 -0.22694133 -0.22886352 -0.5286637
000370 e1 02 77 be 44 24 8b 3d 37 be 75 3e 4a c9 59 be
       -0.24122192 0.067940265 0.23998342 -0.21268192
000380 72 d9 9e 3e e8 01 81 3e 34 e0 58 bf 2c aa b4 3d
       0.31025273 0.25196767 -0.84717107 0.0882152
000390 85 e2 08 bf 22 fa a8 be c8 d4 88 3e a6 e9 85 be
       -0.5347064 -0.33003336 0.2672484 -0.26154822
0003a0 28 2b 73 be 01 41 15 3f a0 69 19 3e f5 55 a3 be
       -0.23746932 0.58302313 0.14981699 -0.31901518
0003b0 c5 bc de 3e c7 ee 22 bf 54 d3 55 3e 0a 1d e5 bd
       0.43503395 -0.63645595 0.20881397 -0.111871794
0003c0 34 4c 5a be dc d5 4d be 69 1e e5 be 6f fb 14 3f
       -0.21318132 -0.20101112 -0.44749764 0.5819616
0003d0 1a a8 22 3f f2 b0 b8 3e 4b 25 c4 be fd 18 93 3e
       0.6353775 0.360725 -0.38309702 0.28730002
0003e0 c0 50 91 bd 3c c0 ed 3e 5f 87 4a bf 56 1d 1e 3e
       -0.0709548 0.46435726 -0.7911281 0.15440878
0003f0 fa 3e 7d 3e 5b f8 05 bf 6d 4b 9c be 16 c1 48 3e
       0.24731055 -0.52332085 -0.30526295 0.19604906
